Verification_Models/decoder/hyper_scale_decoder_uv.onnx (onnx, 839457 bytes, 8 tensors)

conv1.weight f4 [64, 64, 4, 4]
0.042709 0.008218553 6.7348024e-05 -0.028904865 0.006063076 -0.028565275 0.017508179 0.04696537
-0.045850284 -0.042556096 -0.017126964 0.005005557 -0.005894811 0.039834365 -0.016318869 -0.03983546
0.034527674 0.036367383 -0.0034890187 -0.03650201 0.10077256 -0.0083137015 0.0040601795 -0.008404315
-0.08110396 -0.045127887 -0.028854376 -0.0010799211 -0.08169355 -0.04430923 -0.040386967 0.008910108
0.06995291 -0.030842504 0.0031953717 -0.060947996 -0.036343057 -0.02447421 0.017752444 -0.0038213253
-0.0030359754 0.002057701 0.0023836547 -0.057955362 -0.029868137 0.02831536 0.016121902 0.050580982
-0.060931757 0.06959326 -0.0180969 -0.012346488 -0.029025126 0.013934401 0.0005755004 -0.03858729
-0.009894238 -0.054136395 -0.015009396 -0.023989968 0.039740395 -0.021189846 -0.07350433 0.03352797
-0.00955718 0.053930264 -0.041272916 -0.0053745424 0.041630894 0.018116381 0.024840232 -0.054469332
-0.015037355 -0.07686374 -0.012890907 0.017963922 0.013992677 -0.0069459197 -0.004457176 -0.018650511
0.03281163 -0.04292038 -0.03628105 0.035581708 0.02035415 -0.004464367 -0.031576656 0.03610816
0.0034591402 0.018507376 0.027352331 0.025721047 0.019855123 -0.029545628 0.036640033 0.015078755
0.11543103 -0.009415858 0.03267926 -0.03729706 -0.003334785 0.002687372 0.035633203 -0.006837083
-0.0003654523 -0.025867488 0.0030576386 0.11763568 -0.00068956986 0.01047554 0.019025836 -0.04937619
0.036139607 0.040329374 -0.023064809 -0.016167488 0.04159008 -0.01026857 -0.035670206 -0.06351306
-0.034594934 -0.018407978 -0.021417687 0.005816058 0.0065394077 -0.04631838 0.04710259 -0.084790945
0.04901813 0.030739369 -0.02651395 -0.049670313 0.04772612 -0.007626494 0.011363166 0.030745002
0.0043609533 0.047498927 -0.018168483 -0.029904682 0.07189779 -0.015103972 0.01901107 -0.044046015
0.021423811 -0.011153301 -0.0684082 0.05179066 0.014600396 -0.037308432 0.022566013 -0.038656555
0.0353698 0.033308778 0.019856336 0.022652758 -0.0013920083 0.0027769764 -0.0028963205 -0.033061046
0.014805079 0.029684767 0.052887082 -0.051301647 -0.00915756 0.043575455 -0.0041618478 0.06853522
-0.0296697 0.023487784 0.008054912 -0.050189488 -0.039581724 0.041403007 0.030071476 -0.016630659
-0.026003193 0.026348988 -0.085319504 -0.005865082 0.009255694 -0.024727672 0.002081193 -0.12768486
0.06756815 0.04265485 -0.016810307 -0.06058044 -0.030241534 -0.05093409 0.012350156 -0.066343434
0.0287354 0.07721385 -0.052620314 0.019520056 -0.04566928 0.026989458 0.04876914 -0.03264183
0.007660349 -0.053167894 -0.0592636 -0.038675427 -0.006064943 -0.016534552 -0.029996822 -0.03599457
0.054472722 -0.047065187 -0.057787474 0.0024830517 -0.02606415 -0.045104783 -0.0334772 -0.008730186
0.042230345 -0.026803434 -0.059948504 -0.02085045 -0.018264929 -0.018784907 -0.04466223 -0.036301743
0.046302967 -0.038224492 0.009411112 -0.07835805 -0.0142426845 0.02553874 -0.05749342 0.059732728
-0.047137264 0.069801904 -0.028201528 0.030521844 0.07535603 0.066941895 -0.010566033 -0.0064005377
0.061500728 -0.0065294253 -0.0019726225 -0.0008093909 -0.049540736 -0.013244851 0.042453285 -0.041675046
-0.036524333 0.010324919 -0.0024667794 0.01589215 0.07800358 0.02682486 -0.0030689647 -0.00751474
00000000: a2ef 2e3d 1ca7 063c 323d 8d38 e5c9 ecbc
00000010: c5ac c63b b901 eabc 506d 8f3c c35e 403d
00000020: 82cd 3bbd 4d4f 2ebd d94d 8cbc a805 a43b
00000030: 4229 c1bb 5c29 233d 26af 85bc 822a 23bd
00000040: e46c 0d3d f7f5 143d 05a8 64bb 2283 15bd
00000050: d861 ce3d 3136 08bc 410b 853b 41b2 09bc
00000060: d519 a6bd 05d8 38bd 0360 ecbc 248c 8dba
00000070: f34e a7bd 987d 35bd ce6c 25bd b4fb 113c
00000080: 7943 8f3d 6ba9 fcbc 7169 513b 9ba4 79bd
00000090: 75dc 14bd 237e c8bc 936d 913c 336f 7abb
000000a0: 37f7 46bb 7eda 063b 1737 1c3b 9a62 6dbd
000000b0: 06ae f4bc 9df5 e73c 1412 843c 012e 4f3d
000000c0: 9493 79bd e986 8e3d f33f 94bc ed48 4abc
000000d0: 1ac6 edbc 1d4d 643c 2edd 163a b50d 1ebd
000000e0: 711b 22bc 20be 5dbd f8e9 75bc 9c86 c4bc
000000f0: d3c6 223d 5496 adbc 7089 96bd a054 093d
00000100: b895 1cbc fbe5 5c3d ca0d 29bd ee1c b0bb
00000110: 2885 2a3d ce68 943c be7d cb3c 3c1b 5fbd
00000120: 3d5f 76bc bd6a 9dbd 6234 53bc 1329 933c
00000130: 8b41 653c 999a e3bb 810d 92bb f5c8 98bc
00000140: 7d65 063d 48cd 2fbd 709b 14bd 20be 113d
00000150: bfbd a63c d349 92bb 8656 01bd 26e6 133d
00000160: beb2 623b c89c 973c ff11 e03c f2b4 d23c
00000170: 36a7 a23c ac09 f2bc dc13 163d e20c 773c
00000180: 1b67 ec3d f944 1abc b0da 053d cdc4 18bd
00000190: 698c 5abb 9f1e 303b 1ff4 113d 9c09 e0bb
000001a0: 2d9a bfb9 0ee8 d3bc aa62 483b faea f03d
000001b0: 40c4 34ba 99a1 2b3c 12dc 9b3c b03e 4abd
000001c0: 2007 143d 6a30 253d 69f2 bcbc ae71 84bc
000001d0: 5c5a 2a3d 813d 28bc ec1a 12bd 2313 82bd
000001e0: 6bb3 0dbd 54cc 96bc 2574 afbc a194 be3b
000001f0: 8748 d63b 57b8 3dbd a5ee 403d e0a6 adbd
00000200: 3cc7 483d 21d1 fb3c c933 d9bc 1973 4bbd
00000210: 777c 433d abe7 f9bb 932c 3a3c f1dc fb3c
00000220: 54e6 8e3b 3c8e 423d 12d6 94bc aafa f4bc
00000230: 263f 933d a676 77bc 1abd 9b3c 9869 34bd
00000240: fd80 af3c 56bc 36bc 9919 8cbd 7122 543d
00000250: 8036 6f3c bad0 18bd 5cdc b83c 5656 1ebd
00000260: ecdf 103d c96e 083d c1a9 a23c 4792 b93c
00000270: 0c74 b6ba effd 353b 32d0 3dbb 056b 07bd
00000280: 0191 723c 782d f33c 20a0 583d ad21 52bd
00000290: 9709 16bc 2d7c 323d 1c60 88bb 325c 8c3d
000002a0: df0d f3bc 7469 c03c c0f8 033c 7e93 4dbd
000002b0: 7220 22bd 3396 293d 7558 f63c 053d 88bc
000002c0: a604 d5bc d5d9 d73c febb aebd e02f c0bb
000002d0: 32a5 173c b091 cabc a064 083b d2bf 02be
000002e0: 2c61 8a3d dab6 2e3d c5b5 89bc 3223 78bd
000002f0: 18bd f7bc 44a0 50bd 4f58 4a3c 11df 87bd
00000300: 8066 eb3c 4c22 9e3d 6688 57bd 86e8 9f3c
00000310: b60f 3bbd ff18 dd3c 26c2 473d 71b3 05bd
00000320: aa03 fb3b 94c6 59bd 63be 72bd 206a 1ebd
00000330: 6ebc c6bb 7873 87bc e5bb f5bc 0b6f 13bd
00000340: ca1e 5f3d 6dc7 40bd 8fb2 6cbd b2ba 223b
00000350: 7c84 d5bc cbbf 38bd 631f 09bd 0e09 0fbc
00000360: baf9 2c3d e092 dbbc 908c 75bd 90ce aabc
00000370: 55a0 95bc cee2 99bc beef 36bd 23b1 14bd
00000380: 2ea8 3d3d 4991 1cbd 1131 1a3c 2f7a a0bd
00000390: 265a 69bc 9f36 d13c 387e 6bbd 4eaa 743d
000003a0: 0113 41bd 4df4 8e3d e406 e7bc f208 fa3c
000003b0: 4354 9a3d d518 893d 281d 2dbc 9abb d1bb
000003c0: 30e8 7b3d caf4 d5bb 1d47 01bb 4e2d 54ba
000003d0: 3aeb 4abd ee00 59bc 7fe3 2d3d 74b3 2abd
000003e0: 8a9a 15bd d929 293c b1a9 21bb 4130 823c
000003f0: 57c0 9f3d cfbf db3c af20 49bb 353e f6bb

conv1.bias f4 [64]
-4.8616533 0.021652607 -0.044014525 0.05391961 -1.0258657 -1.0036438 -0.514877 -0.35894322
-0.15705511 -0.24070525 -1.16453 -0.3112245 -0.47010112 -0.48733625 -1.3920577 -0.06863774
-3.9549892 -0.5921517 -0.00061011186 -0.26047847 -1.321467 -3.3491027 -0.7387697 -0.100260034
-4.586878 -1.0254399 -0.4271084 -1.4050725 -0.91450775 -1.6396679 -0.24125886 -0.9680089
-1.2849476 -0.52112293 -0.18489552 -0.23509207 -0.42697594 -1.8173099 0.16335876 -0.3553288
0.18773656 -0.012361843 -0.71495473 -0.90788716 -0.50746894 -0.015133759 -0.007200639 -0.7261609
-0.15233277 -0.36764407 -0.24765256 0.71544826 -4.797214 -0.07182042 -1.0391414 -0.5091734
-2.1179974 -0.9930385 -0.6236758 -0.21011133 -0.26597062 -0.44293424 -0.5950189 -0.20531453
00000000: aa92 9bc0 cf60 b13c 9348 34bd cfda 5c3d
00000010: 914f 83bf 6677 80bf fbce 03bf 68c7 b7be
00000020: 0ed3 20be 707b 76be 520f 95bf d158 9fbe
00000030: 18b1 f0be 2384 f9be f22e b2bf f291 8cbd
00000040: 8b1e 7dc0 4197 17bf eaef 1fba 6f5d 85be
00000050: d525 a9bf b357 56c0 0320 3dbf 2255 cdbd
00000060: b4c7 92c0 9d41 83bf f4ad dabe 6ad9 b3bf
00000070: 2e1d 6abf a3e0 d1bf 900c 77be 6ecf 77bf
00000080: 2a79 a4bf 5068 05bf 4055 3dbe fabb 70be
00000090: 979c dabe 9c9d e8bf 8547 273e a8ed b5be
000000a0: 033e 403e 5489 4abc 4607 37bf 4b6b 68bf
000000b0: 7ce9 01bf 96f3 77bc 57f3 ebbb aee5 39bf
000000c0: 1ffd 1bbe d83b bcbe a298 7dbe 9e27 373f
000000d0: c782 99c0 9616 93bd 9602 85bf 3059 02bf
000000e0: 458d 07c0 c537 7ebf 38a9 1fbf 6d27 57be
000000f0: 4d2d 88be 47c8 e2be 2953 18bf f93d 52be

conv2.weight f4 [64, 64, 3, 3]
-0.15376738 -0.14280924 -0.18147545 -0.1491882 -0.31414753 0.11337808 0.080265775 0.17396899
-0.011370763 0.006107476 -0.13990524 0.112300105 0.03339355 0.10354979 0.22226335 -0.05085298
-0.1435295 0.028347496 0.18820873 0.04246478 -0.07097881 0.10510968 -0.009718069 -0.08218134
0.010507396 0.02595339 -0.06762634 -0.05037701 0.05765003 0.02843779 -0.041086253 0.035661507
-0.07732638 -0.056128234 -0.010675098 0.07534116 0.27082124 -0.15718138 -0.032471366 0.32260138
-0.11205115 -0.08579326 0.11593903 -0.016361373 -0.15940858 0.008092346 0.16109255 0.20028631
-0.17541821 0.0007358259 -0.023263328 -0.14447111 0.04193768 0.091458485 0.060332727 -0.097648576
-0.13458033 0.17578636 -0.01395059 0.032175712 0.08145591 -0.11900391 0.10405092 0.17097825
0.060223248 0.041572537 0.0040871184 -0.057090342 0.03312982 -0.062663145 -0.09905504 -0.2511583
0.05074155 0.086662844 -0.023988904 0.09432996 0.17347606 -0.017665768 -0.0887504 0.016613673
-0.09293152 -0.064504586 -0.027840171 -0.098856024 -0.11704587 -0.24940339 -0.24485202 -0.047939964
-0.2670891 -0.09506398 -0.044859316 0.040559694 0.081615664 -0.062001664 -0.049324833 -0.03478116
-0.007995007 0.042771857 0.038671575 -0.031019624 -0.032365195 0.0053886184 -0.057207856 -0.04914677
-0.084844455 -0.11752479 0.002939599 -0.19829516 -0.08023741 0.002776834 -0.21126659 0.17409313
-0.022594865 0.12939419 -0.09204341 -0.20295396 -0.21641628 0.053108405 0.015808225 0.0044332626
-0.17692067 -0.70083153 -0.27401698 -0.21391916 -0.19696297 -0.39709505 0.026323404 -0.089147806
0.029818207 -0.21520784 -0.021917803 0.17945962 -0.0054753944 -0.12555052 -0.16865657 -0.12007589
-0.055199 -0.112273745 0.029769987 0.09482423 0.06914003 0.069777176 -0.092328854 -0.14924799
-0.104209475 -0.0338481 -0.15389046 -0.17914191 -0.37804693 -0.11170878 -0.02538431 -0.004206265
0.012133383 -0.25266105 -0.050484505 -0.19747017 -0.477141 0.23684174 -0.13971308 -0.13896844
-0.05622253 -0.16135994 -0.03981792 -0.18518676 -0.13067745 0.028294865 -0.29655516 -0.20809701
-0.036045115 -0.17886984 -0.17405951 0.024550064 0.07795795 0.032663215 0.020418357 0.0065544615
0.0023187904 -0.08111471 -0.038251013 -0.05144141 -0.05191183 -0.031152597 -0.043413546 -0.14687994
-0.277085 -0.1470295 -0.0067158877 0.004118203 -0.12925221 -0.11795879 0.092722066 -0.10977332
0.019104097 0.1370819 0.028114071 -0.0068105375 -0.025953406 0.41307485 -0.1381967 0.0007273036
0.018033342 -0.28542632 -0.06255548 0.20517133 -0.2539484 -0.10460957 -0.0015967515 0.00022213235
-0.040895827 -0.005257837 -0.0046089394 0.00954249 -0.032619562 -0.0018151469 0.060035136 0.15302734
0.17864937 -0.28671542 -0.16256957 -0.039497577 -0.102340385 -0.16714022 0.23773345 -0.12539785
0.4207627 -0.027149687 -0.058116782 -0.053335853 -0.12977919 -0.18464923 -0.08184909 0.008463403
0.044317484 0.065473355 0.0011608747 -0.03217166 -0.044285603 0.033713937 -0.06775859 0.21284728
-0.0014390075 -0.07668099 -0.065135054 -0.03632716 0.06691669 -0.0399661 0.07263181 0.23257716
0.004873157 -0.123039655 0.2077365 -0.14920826 0.025579518 0.2115532 -0.07117564 0.10324777
00000000: 3275 1dbe 963c 12be b3d4 39be cbc4 18be
00000010: f2d7 a0be c432 e83d 6262 a43d ed24 323e
00000020: 704c 3abc 3921 c83b 5243 0fbe 99fd e53d
00000030: adc7 083d ea11 d43d 0199 633e 374b 50bd
00000040: 66f9 12be 0239 e83c cab9 403e 8def 2d3d
00000050: 575d 91bd be43 d73d 8938 1fbc b14e a8bd
00000060: 3727 2c3c 349c d43c ae7f 8abd 2058 4ebd
00000070: 7022 6c3d 5ef6 e83c 0f4a 28bd cd11 123d
00000080: 4b5d 9ebd b8e6 65bd 9be6 2ebc 774c 9a3d
00000090: 15a9 8a3e 28f4 20be b200 05bd 022c a53e
000000a0: 137b e5bd 60b4 afbd 7171 ed3d 4908 86bc
000000b0: 013c 23be c295 043c 72f5 243e db17 4d3e
000000c0: d5a0 33be 71e4 403a bc92 bebc 3cf0 13be
000000d0: d8c6 2b3d 964e bb3d 731f 773d fafb c7bd
000000e0: 6dcf 09be 5701 343e 0491 64bc aeca 033d
000000f0: 5bd2 a63d 52b8 f3bd a618 d53d ec14 2f3e
00000100: a7ac 763d f747 2a3d 3ced 853b 90d7 69bd
00000110: 22b3 073d 8955 80bd 5edd cabd d297 80be
00000120: 5fd6 4f3d 4a7c b13d 6184 c4bc 1130 c13d
00000130: b5a3 313e cdb7 90bc c5c2 b5bd 6619 883c
00000140: e152 bebd fb1a 84bd 1211 e4bc 0775 cabd
00000150: bfb5 efbd 9a63 7fbe 7dba 7abe b25c 44bd
00000160: e7bf 88be e7b0 c2bd 67be 37bd ec21 263d
00000170: 1d26 a73d 75f5 7dbd d608 4abd b176 0ebd
00000180: 7dfd 02bc 8b31 2f3d 1666 1e3d de1c febc
00000190: 5e91 04bd 0293 b03b c952 6abd 204e 49bd
000001a0: eec2 adbd d6b0 f0bd 4aa6 403b e30d 4bbe
000001b0: 8353 a4bd 8bfb 353b 4556 58be 7845 323e
000001c0: de18 b9bc e97f 043e 4181 bcbd 2ad3 4fbe
000001d0: 3b9c 5dbe 3388 593d 4080 813c e744 913b
000001e0: b12a 35be b269 33bf f44b 8cbe a00d 5bbe
000001f0: a9b0 49be 0b50 cbbe 2ea4 d73c 2093 b6bd
00000200: 5045 f43c 725f 5cbe f78c b3bc 43c4 373e
00000210: f06a b3bb 5190 00be 4fb4 2cbe 59ea f5bd
00000220: 5918 62bd c7ef e5bd 30e0 f33c 3533 c23d
00000230: 4a99 8d3d 56e7 8e3d e916 bdbd 77d4 18be
00000240: c76b d5bd 4ea4 0abd 7695 1dbe fa70 37be
00000250: 5e8f c1be 93c7 e4bd c2f2 cfbc b5d4 89bb
00000260: 19cb 463c ca5c 81be d7c8 4ebd 9f35 4abe
00000270: d34b f4be a486 723e f210 0fbe be4d 0ebe
00000280: 9849 66bd 8a3b 25be 1e18 23bd 99a1 3dbe
00000290: 4fd0 05be a2ca e73c 14d6 97be 6217 55be
000002a0: 0ba4 13bd a829 37be a83c 32be 371d c93c
000002b0: 6ba8 9f3d ddc9 053d 6644 a73c cfc6 d63b
000002c0: d9f6 173b 781f a6bd 18ad 1cbd 3ab4 52bd
000002d0: 80a1 54bd bb33 ffbc 67d2 31bd b267 16be
000002e0: 16de 8dbe e78e 16be f310 dcbb fef1 863b
000002f0: b15a 04be 6194 f1bd 11e5 bd3d d6d0 e0bd
00000300: 3280 9c3c 335f 0c3e 7b4f e63c ee2a dfbb
00000310: 3d9c d4bc 8c7e d33e 7083 0dbe 85a8 3e3a
00000320: a9ba 933c 6623 92be 161d 80bd 6f18 523e
00000330: 8605 82be 8b3d d6bd 174a d1ba 33ec 6839
00000340: 6282 27bd ef49 acbb 9606 97bb 1b58 1c3c
00000350: 179c 05bd 39ea edba 67e7 753d 33b3 1c3e
00000360: dcef 363e 5dcc 92be a378 26be 36c8 21bd
00000370: d697 d1bd ce26 2bbe 6670 733e 4b68 00be
00000380: 356e d73e 0569 debc dd0b 6ebd b276 5abd
00000390: d6e4 04be b014 3dbe 7fa0 a7bd 16aa 0a3c
000003a0: 4086 353d e516 863d 7e28 983a 6ec6 03bd
000003b0: d264 35bd a017 0a3d 04c5 8abd a3f4 593e
000003c0: 149d bcba ec0a 9dbd 8765 85bd cacb 14bd
000003d0: 9e0b 893d 7eb3 23bd fdbf 943d b528 6e3e
000003e0: 01af 9f3b 37fc fbbd e1b8 543e 0dca 18be
000003f0: 238c d13c 67a1 583e 89c4 91bd 9173 d33d

conv2.bias f4 [64]
0.540164 -1.2109911 -0.029577516 0.09737336 -0.13940597 -0.539906 0.49712992 -0.09315906
0.12158015 0.08503266 0.02115714 -0.28562856 -0.27407214 -0.3409857 0.33979207 -0.27050114
-0.63209945 -0.21339695 -1.8581291 -1.2110438 -0.32358512 0.13531218 0.11726845 0.5014447
-0.3269432 -0.27307045 -0.84226143 -0.60745597 -0.82992566 -0.06715588 -1.3408105 0.6126084
0.006512439 -0.13181455 -0.278594 -0.3795461 -0.19966409 -0.17343538 -1.094886 0.2532799
-1.0628321 0.37261117 0.5315958 -0.0028072563 0.87808484 -1.17688 0.19468558 0.1910285
0.14097352 0.3290998 -0.87365746 -0.5495723 -0.5627006 0.5409841 0.15967537 0.006319149
0.1829055 -0.33037922 0.7192992 -0.65702105 -0.019079879 0.10663794 -0.47974852 -0.25783676
00000000: 3048 0a3f c201 9bbf 8c4c f2bc af6b c73d
00000010: 70c0 0ebe 4837 0abf d087 fe3e 2dca bebd
00000020: 04ff f83d 9a25 ae3d bd51 ad3c e83d 92be
00000030: 2f53 8cbe ad95 aebe 3af9 ad3e 207f 8abe
00000040: 45d1 21bf bb84 5abe 2dd7 edbf 7c03 9bbf
00000050: f3ac a5be 478f 0a3e 712a f03d ae5e 003f
00000060: 1965 a7be e4cf 8bbe 729e 57bf 3c82 1bbf
00000070: 0276 54bf 0689 89bd ae9f abbf e7d3 1c3f
00000080: 4c66 d53b 65fa 06be dfa3 8ebe de53 c2be
00000090: be74 4cbe 0b99 31be 3925 8cbf e7ad 813e
000000a0: e20a 88bf e4c6 be3e aa16 083f f2f9 37bb
000000b0: 2bca 603f 01a4 96bf a85b 473e fa9c 433e
000000c0: 5d5b 103e c57f a83e 04a8 5fbf c5b0 0cbf
000000d0: 260d 10bf ef7d 0a3f f181 233e dd10 cf3b
000000e0: 944b 3b3e 7727 a9be fe23 383f 8832 28bf
000000f0: 684d 9cbc fe64 da3d 99a1 f5be 2e03 84be

conv3.weight f4 [64, 64, 4, 4]
-0.021414077 -0.10187303 -0.037629414 -0.024045827 -0.06589942 -0.050001632 -0.20308936 -0.030699177
-0.075748235 -0.2049586 -0.020652156 -0.17501697 0.046577334 -0.056527548 -0.013501707 -0.029530007
-0.19467627 -0.07121273 -0.1350091 0.024750942 -0.052156616 -0.23881963 -0.06254472 0.014872588
-0.07677142 -0.0007412255 -0.08027761 -0.05285184 -0.042002365 -0.01654035 -0.04863022 0.034387387
0.0860568 -0.14793766 0.070042245 0.024431907 0.14165063 -0.0072432384 0.23639022 0.07441838
-0.03503812 -0.14842275 -0.0910383 0.16188034 -0.09020267 -0.034016646 -0.108549856 -0.023303822
-0.03784997 -0.036718536 -0.06953165 -0.029332418 -0.11454788 -0.00043509717 -0.06438244 0.014694231
-0.038566537 -0.039413307 -0.038762867 -0.080183916 0.037139013 -0.0045500523 -0.12925735 -0.07933805
-0.2568671 -0.0816541 -0.08652962 -0.4781745 -0.4789323 -0.15143833 0.07055921 -0.29408127
0.05543111 -0.040536303 -0.050281245 -0.7046648 -0.3543913 -0.091693595 0.01234625 -0.21347922
-0.09268856 -0.19603989 0.12654714 0.011822617 0.007529731 0.16245726 -0.010463805 0.008105479
-0.15876518 -0.07900333 -0.057750583 0.09655446 0.06500181 0.27244744 0.25360957 -0.1716768
0.08165281 -0.018242784 -0.11458683 -0.005550268 0.012989933 0.02829762 -0.02847637 0.023534792
-0.09676051 0.007507305 -0.15400366 0.03726648 -0.061390795 0.032782003 6.0598155e-05 -0.04213852
-0.07388561 0.010538274 0.065885305 -0.13076353 -0.056918893 0.13694419 -0.037390716 -0.133335
-0.154771 -0.09733894 0.10167658 -0.23526189 -0.024419632 0.07479644 -0.054362737 -0.026808664
-0.010430795 -0.02268546 -0.13244994 -0.01780092 -0.048321985 0.0479573 -0.010683493 -0.20824824
-0.07327682 -0.02412942 -0.047717683 -0.04877068 0.016396306 -0.18969426 0.02308771 -0.38585845
-0.11335017 0.077492796 -0.17406397 0.20004243 0.31215033 0.20866452 0.40226957 0.02816996
0.10989578 0.053502325 0.075849526 0.11295005 -0.034568094 0.0024855551 0.1687308 0.17169055
0.40079117 -0.16331771 0.2052523 -0.06579701 0.6062372 0.14845626 0.44094902 0.22894852
0.09683545 -0.17113967 0.36339372 0.14593458 0.61062944 0.0641918 0.26471883 0.18655631
-0.12680036 -0.10399266 0.02646702 -0.009028188 -0.10869392 0.05882513 -0.013832684 0.01882485
-0.041716136 -0.17638953 0.09316911 -0.15639873 -0.01695043 -0.015085001 -0.2732999 -0.16087131
-0.025418013 -0.03775078 -0.1684616 -0.010478506 0.033303842 0.07628953 0.016147397 -0.14650054
-0.03865892 -0.11015269 -0.09321003 -0.10247011 -0.084846295 0.121293224 0.2622572 0.0021602663
0.0023333821 -0.042472005 -0.011262455 0.063256435 -0.037909444 0.05314212 -0.020226862 -0.007842919
0.06406714 0.037288014 0.08454556 -0.050048124 0.019547043 0.037586756 -0.113284595 -0.023937922
-0.097749986 -0.3151882 -0.06421618 -0.0067047453 0.036622237 -0.15969233 0.052770898 -0.19900383
-0.06364605 0.022278555 -0.15953724 -0.18998024 -0.060290195 -0.09415861 -0.13760401 -0.30997422
-0.16315487 -0.15268426 -0.37459624 -0.08224036 -0.1175048 -0.06716164 -0.15262209 -0.06699875
-0.020298524 -0.025156157 -0.2822844 0.05518512 0.0582954 0.0037905306 -0.04680579 -0.06054186
00000000: 936c afbc cfa2 d0bd 4d21 1abd c1fb c4bc
00000010: 46f6 86bd 83ce 4cbd a8f6 4fbe d77c fbbc
00000020: e421 9bbd abe0 51be b62e a9bc a637 33be
00000030: e0c7 3e3d 6e89 67bd 4436 5dbc eae8 f1bc
00000040: 3759 47be fbd7 91bd d33f 0abe 7dc2 ca3c
00000050: 2da2 55bd 228d 74be 7217 80bd 28ac 733c
00000060: 563a 9dbd cd4e 42ba 9668 a4bd 2c7b 58bd
00000070: ac0a 2cbd a17f 87bc 7b30 47bd cad9 0c3d
00000080: 8c3e b03d f87c 17be 4f72 8f3d 6c25 c83c
00000090: dd0c 113e b058 edbb 4710 723e aa68 983d
000000a0: 2284 0fbd 22fc 17be 4a72 babd f6c3 253e
000000b0: 2dbc b8bd 0a55 0bbd 634f debd a8e7 bebc
000000c0: 9208 1bbd 2d66 16bd 9c66 8ebd 8a4a f0bc
000000d0: 1498 eabd c11d e4b9 f1da 83bd 12c0 703c
000000e0: f2f7 1dbd d96f 21bd d0c5 1ebd 7737 a4bd
000000f0: 141f 183d 9b18 95bb 0a5c 04be fd7b a2bd
00000100: 1684 83be 443a a7bd 7136 b1bd 4ad3 f4be
00000110: 9d36 f5be a612 1bbe 5981 903d d291 96be
00000120: bb0b 633d 6509 26bd b5f3 4dbd ea64 34bf
00000130: c772 b5be dac9 bbbd ed47 4a3c 4c9a 5abe
00000140: 80d3 bdbd aebe 48be 9395 013e a6b3 413c
00000150: f6bb f63b 325b 263e 6170 2bbc d8cc 043c
00000160: 5793 22be 7fcc a1bd e08b 6cbd 58be c53d
00000170: ab1f 853d 3b7e 8b3e 1dd9 813e 0bcc 2fbe
00000180: 9739 a73d e471 95bc 80ac eabd 06df b5bb
00000190: bad3 543c 69d0 e73c 4747 e9bc 09cc c03c
000001a0: 602a c6bd d7ff f53b 23b3 1dbe bda4 183d
000001b0: ea74 7bbd 6c46 063d c62a 7e38 7199 2cbd
000001c0: 5751 97bd baa8 2c3c e0ee 863d e0e6 05be
000001d0: c923 69bd 193b 0c3e 0227 19bd f888 08be
000001e0: 4a7c 1ebe a359 c7bd d03b d03d 7ee8 70be
000001f0: ae0b c8bc e02e 993d 76ab 5ebd d89d dbbc
00000200: ede5 2abc dcd6 b9bc f5a0 07be 3cd3 91bc
00000210: 46ed 45bd e06e 443d d109 2fbc 073f 55be
00000220: 2812 96bd 10ab c5bc 9e73 43bd c4c3 47bd
00000230: 8c51 863c 363f 42be 7022 bd3c 3d8f c5be
00000240: 2224 e8bd 8bb4 9e3d d33d 32be ecd7 4c3e
00000250: 2bd2 9f3e 27ac 553e 47f6 cd3e b0c4 e63c
00000260: 0a11 e13d 4125 5b3d ff56 9b3d 5b52 e73d
00000270: 4697 0dbd b2e4 223b c4c7 2c3e a6cf 2f3e
00000280: 8034 cd3e c23c 27be a92d 523e 95c0 86bd
00000290: 5c32 1b3f eb04 183e 12c4 e13e 7b71 6a3e
000002a0: aa51 c63d 3d3f 2fbe be0e ba3e e06f 153e
000002b0: 3652 1c3f fe76 833d 3a89 873e 9e08 3f3e
000002c0: f4d7 01be 1bfa d4bd 5dd1 d83c f7ea 13bc
000002d0: eb9a debd 9ff2 703d 7ba2 62bc 9236 9a3c
000002e0: 8ade 2abd 759f 34be 72cf be3d fd26 20be
000002f0: a1db 8abc 1427 77bc f7ed 8bbe 73bb 24be
00000300: 7039 d0bc 90a0 1abd 3381 2cbe 0aae 2bbc
00000310: 9c69 083d af3d 9c3d 8c47 843c 3d04 16be
00000320: d158 1ebd bc97 e1bd e6e4 bebd d9db d1bd
00000330: e5c3 adbd 9568 f83d 9346 863e 4193 0d3b
00000340: a8eb 183b 20f7 2dbd 2986 38bc 978c 813d
00000350: ef46 1bbd 8dab 593d ceb2 a5bc 967f 00bc
00000360: a235 833d 51bb 183d 3926 ad3d 43ff 4cbd
00000370: 1f21 a03c 92f4 193d c101 e8bd 7619 c4bc
00000380: 2531 c8bd 5960 a1be c683 83bd 7bb3 dbbb
00000390: 3301 163d 6386 23be 4c26 583d a9c7 4bbe
000003a0: dc58 82bd 8481 b63c bb5d 23be 2e8a 42be
000003b0: daf2 76bd 3bd6 c0bd 11e8 0cbe f1b4 9ebe
000003c0: 1212 27be 4359 1cbe 14cb bfbe a26d a8bd
000003d0: 5ba6 f0bd 0b8c 89bd f748 1cbe a436 89bd
000003e0: 1749 a6bc 4914 cebc 9587 90be cb09 623d
000003f0: 28c7 6e3d 8d6a 783b 6eb7 3fbd befa 77bd

conv3.bias f4 [64]
-1.7454721 -1.9286565 -0.4838089 -2.1100657 -0.02335713 -1.4036363 -0.84017795 -0.91423404
-0.23647626 -2.6606982 -5.409103 -0.54016507 -1.4965357 -0.78303504 -1.2814392 -0.9136896
-0.27285376 -2.0828035 -0.05825766 -1.1524435 -2.6841338 -2.2963922 -0.254772 0.27482793
-0.075596385 -6.719351 -0.043142334 -1.3308743 -2.140271 -1.7537895 -3.1542163 -0.65534204
-0.31569666 -4.185285 0.12373865 -0.54441077 -3.0124137 -1.5491775 -1.6229892 -1.8565712
-3.9166665 -0.91661537 0.33300328 -0.5433924 0.19159172 -3.4714344 -1.4994195 0.05114887
-0.40370402 -4.328985 -1.9465015 0.19486378 -1.3695078 -1.9489378 -2.4603083 -3.4902346
-0.919076 -0.20743752 0.46694472 -1.2804494 0.14227696 -0.01843296 -0.6335086 -0.28065088
00000000: a16b dfbf 37de f6bf cdb5 f7be 510b 07c0
00000010: 7457 bfbc 5baa b3bf e715 57bf 3e0b 6abf
00000020: d526 72be e148 2ac0 5f17 adc0 4248 0abf
00000030: 7b8e bfbf fc74 48bf 3306 a4bf 90e7 69bf
00000040: 7db3 8bbe a74c 05c0 969f 6ebd 4583 93bf
00000050: d9c8 2bc0 17f8 12c0 7a71 82be 3fb6 8c3e
00000060: 47d2 9abd ec04 d7c0 04b6 30bd 175a aabf
00000070: 33fa 08c0 2d7c e0bf aede 49c0 7fc4 27bf
00000080: fea2 a1be dbed 85c0 b06a fd3d 815e 0bbf
00000090: 63cb 40c0 734b c6bf 1cbe cfbf 20a4 edbf
000000a0: aaaa 7ac0 4ea7 6abf 687f aa3e c41b 0bbf
000000b0: 9f30 443e fb2b 5ec0 faec bfbf 7a81 513d
000000c0: 4bb2 cebe 0c87 8ac0 f626 f9bf 5f8a 473e
000000d0: 084c afbf cb76 f9bf b175 1dc0 0160 5fc0
000000e0: 9148 6bbf 806a 54be 6113 ef3e c4e5 a3bf
000000f0: 0db1 113e b800 97bc 9f2d 22bf 79b1 8fbe

conv4.weight f4 [64, 64, 3, 3]
-0.028285874 0.044420354 0.032595143 -0.11253966 -0.17540947 -0.1925427 -0.14240544 -0.19892931
-0.11100665 0.02207468 -0.006156846 -0.06303839 -0.06589401 0.008316872 -0.03450814 -0.06242318
-0.038442746 -0.02827314 -0.0075665764 -0.012077416 -0.018933205 -0.007223862 -0.009197133 -0.011364949
-0.012852758 0.0023385116 -0.0032529652 -0.067863464 -0.054963358 -0.013344957 -0.074153274 -0.020305084
-0.020813718 -0.076659486 -0.0377036 0.0014101937 0.0024270175 -0.019116385 -0.027501255 -0.0034904191
-0.006205862 -0.0017278285 0.007685847 -0.00094331073 0.007191492 -0.006716178 -0.014353439 -0.066058
-0.035787128 -0.022297261 -0.026365243 0.02562748 -0.06847633 -0.09480332 0.028414758 -0.17077492
-0.058377296 -0.03986545 -0.052630868 -0.10625344 -0.10408795 -0.1009451 -0.040398724 -0.11777873
-0.24884504 -0.05089371 -0.010693764 -0.20124188 -0.24953566 -0.06890138 -0.15912962 -0.2360479
-0.0030894629 0.0005402787 -0.0007286557 0.003368516 0.014459757 -0.005400594 0.0046249065 0.03777204
0.0012780798 -0.032280806 0.0025433158 -0.006616572 -0.01977631 -0.019820482 -0.020366557 0.008302717
0.0026335304 -0.0029106622 0.014734855 -0.0005307985 -0.006624202 0.010228402 -0.0020185953 0.021236546
-0.0012051131 -0.021431603 -0.0016115758 0.0029236402 0.0112442 -0.0076768794 0.011274328 0.024158688
0.01678738 0.0026925895 0.015089626 -0.007028778 -0.026496066 -0.16443764 0.07934454 -0.19901396
-0.19245324 -0.1295141 -0.06536954 -0.15161356 -0.105237946 -0.0033041162 0.003944261 0.007923599
-0.0003690467 0.012789344 0.009733604 -0.010304536 -0.00907008 -0.01874814 0.01548016 0.035636403
-0.15246488 -0.012318159 0.08286775 -0.14356664 -0.13237263 -0.12038838 -0.08877736 -0.048248935
-0.07546902 -0.056578733 -0.029803934 -0.09514237 -0.056594174 0.0047182585 -0.06438388 -0.014783884
-7.324825e-05 -0.009370905 -0.011759518 0.003599864 -0.0067995503 -0.0011574536 -0.010273479 -0.009465127
-0.0067744474 -0.0601743 -0.07844241 -0.07123436 -0.091726005 -0.109555684 -0.11728243 -0.00013098278
0.016275212 -0.08053794 -0.0014030745 -0.049914684 -0.047273036 -0.03629902 -0.0017979218 -0.14397602
0.017221663 -0.037432514 -0.10588912 0.08263989 -0.11778178 -0.058182098 0.12571234 -0.13851005
-0.06662687 -0.053104855 -0.1590426 -0.1426104 -0.072268404 -0.113404185 -0.103385106 -0.09186468
-0.20134142 -0.118333064 -0.012576165 -0.08756044 -0.04531884 -0.09266684 -0.07649747 -0.06049816
-0.1387805 -0.0583991 -0.16991934 -0.05717859 -0.04047539 -0.07905938 0.004964343 0.009350257
0.0002166622 -0.014567704 -0.012222502 -0.013016726 -0.0039793546 0.010901854 -0.0037908908 -0.011619167
-0.019197993 -0.028320769 -0.015297901 -0.029237837 -0.018491365 0.0051565166 -0.011664372 -0.006735717
-0.013199717 0.0027175117 0.0012940493 0.0003100421 -0.016654816 -0.007304968 -0.03929768 -0.014170904
-0.012214988 -0.0053358586 0.00775496 0.0018279112 0.009810464 0.013106 -0.0012065291 -0.009166493
0.01014064 -0.0054205484 -0.0034572845 -0.008311328 -0.001903895 -0.0012880801 -0.0042425 -0.009103987
-0.005154656 -0.016555877 0.0005989261 -0.04792968 -0.122212 -0.020106973 -0.089667805 -0.19633083
-0.1972406 -0.04631283 -0.09003938 -0.11757923 -0.057935316 -0.089680515 -0.04946674 0.022621041
00000000: c7b7 e7bc 1ef2 353d 7c82 053d 317b e6bd
00000010: 8a9e 33be ea29 45be bbd2 11be 20b4 4bbe
00000020: 7457 e3bd f6d5 b43c 5ebf c9bb 451a 81bd
00000030: 70f3 86bd 7d43 083c 6858 0dbd 73af 7fbd
00000040: 2476 1dbd 129d e7bc 0bf1 f7bb 5be0 45bc
00000050: cf19 9bbc 26b6 ecbb 92af 16bc 0d34 3abc
00000060: 6094 52bc b741 193b b32f 55bb 00fc 8abd
00000070: 4221 61bd cea4 5abc acdd 97bd d956 a6bc
00000080: 8881 aabc a6ff 9cbd 176f 1abd 40d6 b83a
00000090: 990e 1f3b f799 9cbc 504a e1bc 84bf 64bb
000000a0: 8b5a cbbb 4e78 e2ba 8fd9 fb3b 8348 77ba
000000b0: 9ba6 eb3b 6213 dcbb b02a 6bbc 6b49 87bd
000000c0: 8695 12bd bfa8 b6bc ecfb d7bc b9f0 d13c
000000d0: 513d 8cbd 3e28 c2bd 11c6 e83c 9fdf 2ebe
000000e0: 081d 6fbd f449 23bd 7793 57bd 679b d9bd
000000f0: 102c d5bd 4ebc cebd 2279 25bd fa35 f1bd
00000100: 3cd1 7ebe ec75 50bd e634 2fbc 5a12 4ebe
00000110: 4786 7fbe 2b1c 8dbd e0f2 22be 8ab6 71be
00000120: 9678 4abb 7da1 0d3a 4203 3fba 52c2 5c3b
00000130: 9ee8 6c3c 77f7 b0bb 878c 973b dbb6 1a3d
00000140: 3e85 a73a e138 04bd c2ad 263b d4cf d8bb
00000150: ee01 a2bc 905e a2bc c4d7 a6bc 1e08 083c
00000160: 4f97 2c3b cfc0 3ebb 766a 713c 4925 0bba
00000170: d50f d9bb 0795 273c 694a 04bb 44f8 ad3c
00000180: e3f4 9dba 5491 afbc 833b d3ba 8b9a 3f3b
00000190: 9839 383c 558e fbbb f6b7 383c 71e8 c53c
000001a0: b085 893c 2876 303b 7b3a 773c aa51 e6bb
000001b0: 470e d9bc 5762 28be 647f a23d 51ca 4bbe
000001c0: 7612 45be 589f 04be 77e0 85bd 9640 1bbe
000001d0: fe86 d7bd df89 58bb dc3e 813b fcd1 013c
000001e0: 9c7c c1b9 668a 513c b279 1f3c 5bd4 28bc
000001f0: ac9a 14bc b395 99bc 7fa0 7d3c 7af7 113d
00000200: c11f 1cbe 1bd2 49bc 91b6 a93d 2203 13be
00000210: b18c 07be 2f8e f6bd e8d0 b5bd ada0 45bd
00000220: 808f 9abd 1abf 67bd 6127 f4bc 01da c2bd
00000230: 4bcf 67bd 9f9b 9a3b b2db 83bd 1b38 72bc
00000240: db9c 99b8 6d88 19bc feaa 40bc b2eb 6b3b
00000250: c3ce debb b3b5 97ba 1852 28bc 9f13 1bbc
00000260: 2ffc ddbb 5479 76bd 6aa6 a0bd 52e3 91bd
00000270: d8da bbbd bb5e e0bd c531 f0bd 6c58 09b9
00000280: 9853 853c 13f1 a4bd 5ee7 b7ba 5773 4cbd
00000290: 5fa1 41bd 48ae 14bd 3fa8 ebba 736e 13be
000002a0: 7214 8d3c d652 19bd 65dc d8bd 1a3f a93d
000002b0: 9337 f1bd 5a50 6ebd bcba 003e 94d5 0dbe
000002c0: ab73 88bd 7a84 59bd 10dc 22be 7608 12be
000002d0: 7501 94bd 7440 e8bd 92bb d3bd 8d23 bcbd
000002e0: 722c 4ebe 9b58 f2bd 420c 4ebc e352 b3bd
000002f0: 3fa0 39bd 1dc8 bdbd b5aa 9cbd ebcc 77bd
00000300: 7a1c 0ebe e533 6fbd 56ff 2dbe 1934 6abd
00000310: 86c9 25bd e2e9 a1bd edab a23b d231 193c
00000320: d12f 6339 61ad 6ebc e440 48bc 1b44 55bc
00000330: 3f65 82bb b19d 323c 9870 78bb 525e 3ebc
00000340: 1c45 9dbc f500 e8bc 0ca4 7abc 3084 efbc
00000350: 347b 97bc fff7 a83b ec1b 3fbc 4ab7 dcbb
00000360: a043 58bc 4818 323b 179d a93a 258d a239
00000370: ae6f 88bc 835e efbb 9bf6 20bd 142d 68bc
00000380: 5f21 48bc 6dd8 aebb 521d fe3b 8696 ef3a
00000390: 12bc 203c 8cba 563c 6624 9eba 0f2f 16bc
000003a0: ed24 263c db9e b1bb 9c93 62bb 3c2c 08bc
000003b0: 1e8c f9ba ccd4 a8ba ab04 8bbb e428 15bc
000003c0: 63e8 a8bb 31a0 87bc 4001 1d3a ea51 44bd
000003d0: 494a fabd 61b7 a4bc c1a3 b7bd f30a 49be
000003e0: 71f9 49be 86b2 3dbd 9166 b8bd 61cd f0bd
000003f0: 954d 6dbd 6baa b7bd a39d 4abd c34f b93c

conv4.bias f4 [64]
0.1750546 0.029294701 0.04062618 0.022723567 -0.09056664 -0.01776084 -0.068922006 0.22185662
0.0042110826 0.014360304 -0.13476819 -0.0018073292 -0.08722489 0.0053123985 -0.03907978 -0.00047842853
0.050168402 -0.047451913 -0.009500571 -0.16956621 0.007557664 0.13944127 0.019716104 0.007492854
0.028057232 -0.0012453274 0.07501555 0.107890576 0.10776226 0.010620122 0.09403687 0.06496418
-0.07181968 -0.088424936 -0.079473495 -0.06722005 0.015287431 0.11285753 0.006844388 0.1302328
-0.025301218 0.0048037735 0.00095336145 -0.20589642 -0.119755425 -0.055464257 0.008815513 0.055698134
-0.060737494 -0.007906614 0.05621701 0.054387935 -0.012054546 -0.006143483 -0.003099797 0.032889724
-0.016090523 -0.048120096 0.003244163 0.033742305 0.017404849 0.01573211 -0.06558647 -0.036056176
00000000: 8341 333e 71fb ef3c a367 263d c626 ba3c
00000010: 017b b9bd 2e7f 91bc fb26 8dbd 622e 633e
00000020: 1ffd 893b 7b47 6b3c ac00 0abe e8e3 ecba
00000030: f7a2 b2bd a113 ae3b 1f12 20bd 97d5 fab9
00000040: 627d 4d3d f05c 42bd 48a8 1bbc c4a2 2dbe
00000050: 48a6 f73b b1c9 0e3e ab83 a13c 9d86 f53b
00000060: 48d8 e53c 413a a3ba c1a1 993d bcf5 dc3d
00000070: 76b2 dc3d 0500 2e3c 6796 c03d f10b 853d
00000080: 3216 93bd 2218 b5bd 00c3 a2bd aaaa 89bd
00000090: 2278 7a3c d921 e73d e346 e03b bf5b 053e
000000a0: 8044 cfbc f968 9d3b 01eb 793a 83d6 52be
000000b0: 5542 f5bd 7d2e 63bd f16e 103c ba23 643d
000000c0: e1c7 78bd be8a 01bc cf43 663d e2c5 5e3d
000000d0: 6e80 45bc 454f c9bb f725 4bbb 60b7 063d
000000e0: 46d0 83bc 9419 45bd 069c 543b 5f35 0a3d
000000f0: 9d94 8e3c a0e0 803c 3352 86bd a4af 13bd
