Verification_Models/decoder/hyper_decoder_uv.onnx (onnx, 858756 bytes, 9 tensors)

conv1.weight f4 [64, 64, 1, 1]
0.049636178 0.19693984 0.00802154 0.17727308 0.028930297 0.15126675 0.16493592 0.0018009659
0.13554826 -0.056529183 -0.24303512 0.09326424 0.036584236 0.20176116 0.09333686 0.030127652
-0.17698374 -0.042223673 -0.17175043 0.040220805 -0.040737268 -0.108391665 -0.02048768 -0.109017275
0.15312193 0.20329936 0.008013878 0.10106597 0.11420555 -0.23735966 -0.044995353 -0.03394335
-0.04636261 0.022855435 0.23535867 0.1985303 -0.18851386 -0.011183712 -0.2884091 -0.12871672
-0.03229563 0.08031884 -0.049537975 -0.00092465803 0.10811812 0.180614 0.35607448 -0.08181036
0.008473839 -0.10039252 -0.005779739 0.13762403 0.15775213 0.020296844 0.04724324 -0.2083929
-0.051909197 0.0671717 -0.10466782 -0.077167794 -0.085077606 -0.03146833 -0.08224447 0.17242013
-0.122419424 0.12587593 -0.13815157 0.18629481 -0.13775377 0.28243455 -0.08936818 0.01237574
-0.05909092 0.046075057 0.0029675257 0.14798571 -0.041261967 -0.041658014 0.0740886 0.04533485
-0.053069003 0.084147744 0.039854754 -0.013413856 -0.21009924 -0.05774592 0.20412754 -0.038687218
-0.25238523 -0.016600547 1.1723839 0.21231459 0.42097342 -0.10044064 0.35616007 -0.18670516
-0.06168724 0.07547661 -0.30360004 -0.059846602 -0.04362934 -0.09673802 0.11992353 0.10389871
0.1370166 0.10861508 -0.043277964 -0.11958021 0.23309638 0.29038838 0.0414281 -0.07801134
0.19934987 0.17242445 0.3464257 0.14628717 -0.12859744 -0.27066424 -0.22915229 -0.09301565
0.0516461 -0.038230117 -0.3065584 -0.1227896 -0.21116309 0.5828998 -0.38695192 0.29526836
-0.023954373 -0.1161548 0.0017468167 -0.03211837 -0.09785271 -0.16791989 -0.17214611 -0.034152374
0.026586808 -0.13425317 0.0968863 -0.04569957 0.07884418 -0.064579174 -0.20769522 0.11975267
0.1720655 0.007372321 0.21407492 0.23792768 0.3605653 0.10870019 -0.009189339 -0.01612842
0.34680253 0.24980402 0.016885424 0.14723553 -0.08994014 0.12955193 0.043872092 0.12113317
-0.23105538 0.16253503 0.058620837 0.13690785 -0.31298107 0.070344694 -0.047625806 0.15743954
0.10353329 0.1229293 0.34988943 0.068952575 -0.014908654 0.06093969 -0.0139740715 0.10165307
-0.0049310625 0.007962554 -0.05240244 -0.085211925 0.06292697 0.015375107 0.22532439 -0.06828629
-0.114518076 -0.082855456 -0.26498157 -0.22775571 0.022075975 -0.0377388 -0.21424825 0.342632
0.1329224 0.15403062 0.0064623435 0.023650039 -0.07424467 0.23325646 0.19314685 0.010380443
0.18918025 -0.032541968 0.1503595 0.21022314 0.08652859 0.25334686 -0.15487029 0.2291227
-0.108690456 -0.20571692 0.0712836 0.21722692 -0.12360495 0.09854746 -0.32591736 0.2114478
0.085424624 0.04801577 -0.013025496 -0.2809732 -0.03928011 -0.08753992 0.023704182 0.009021619
0.22893512 -0.011478475 0.22488572 0.10690487 0.11245232 0.019727523 -0.35053256 0.087841205
0.04219202 -0.0494086 -0.03899999 0.20640698 -0.08681669 0.3653026 -0.13382596 -0.12687053
0.0029072403 0.0034124958 -0.041176762 -0.14528663 0.09111153 -0.0041047954 0.114644 0.11700365
0.12279628 -0.06578899 -0.0468543 -0.08565608 -0.14702241 0.0284851 0.017190918 0.14827588
00000000: 4e4f 4b3d 99aa 493e c76c 033c 1387 353e
00000010: 3bff ec3c ace5 1a3e f6e4 283e 630e ec3a
00000020: 2acd 0a3e 258b 67bd 33de 78be 5201 bf3d
00000030: 5ad9 153d 7a9a 4e3e 6527 bf3d 44ce f63c
00000040: 3a3b 35be bbf2 2cbd 58df 2fbe 92be 243d
00000050: 1fdc 26bd 73fc ddbd c7d5 a7bc 7344 dfbd
00000060: ffcb 1c3e b52d 503e a44c 033c adfb ce3d
00000070: 99e4 e93d 690e 73be 0c4d 38bd 2f08 0bbd
00000080: b8e6 3dbd 523b bb3c dd01 713e 874b 4b3e
00000090: c709 41be e33b 37bc 5caa 93be 51ce 03be
000000a0: 6c48 04bd 347e a43d 55e8 4abd c064 72ba
000000b0: 086d dd3d e0f2 383e 654f b63e 318c a7bd
000000c0: dbd5 0a3c 989a cdbd f763 bdbb 50ed 0c3e
000000d0: c689 213e 9145 a63c 2182 413d f364 55be
000000e0: bd9e 54bd 5191 893d 155c d6bd 260a 9ebd
000000f0: 2b3d aebd f0e4 00bd ca6f a8bd e78e 303e
00000100: 09b7 fabd 9fe5 003e 9b77 0dbe 11c4 3e3e
00000110: 530f 0dbe 439b 903e aa06 b7bd 9ec3 4a3c
00000120: 5209 72bd 33b9 3c3d d27a 423b 9189 173e
00000130: 4f02 29bd 98a1 2abd c4bb 973d 09b1 393d
00000140: e25e 59bd a755 ac3d bd3e 233d cac5 5bbc
00000150: 4124 57be fc86 6cbd cf06 513e 7d76 1ebd
00000160: a338 81be dffd 87bc ad10 963f ff68 593e
00000170: d489 d73e d2b3 cdbd 9d5a b63e a32f 3fbe
00000180: c2ab 7cbd 7b93 9a3d 7771 9bbe b621 75bd
00000190: aeb4 32bd 951e c6bd 789a f53d d9c8 d43d
000001a0: 144e 0c3e 9571 de3d 3c44 31bd 78e6 f4bd
000001b0: d1b0 6e3e c9ad 943e 83b0 293d 69c4 9fbd
000001c0: 5f22 4c3e 0990 303e b65e b13e 4ecc 153e
000001d0: 0caf 03be 8194 8abe e6a6 6abe fd7e bebd
000001e0: dc8a 533d 2f97 1cbd 39f5 9cbe 1d79 fbbd
000001f0: 233b 58be ec38 153f 901e c6be 6a2d 973e
00000200: f63b c4bc 91e2 edbd 71f5 e43a 8d8e 03bd
00000210: 0067 c8bd 31f3 2bbe 1247 30be 5ce3 0bbd
00000220: 94cc d93c aa79 09be 536c c63d 792f 3bbd
00000230: 0f79 a13d 1642 84bd 0eae 54be e340 f53d
00000240: f031 303e 8393 f13b 7536 5b3e 50a3 733e
00000250: 049c b83e 359e de3d e28e 16bc c01f 84bc
00000260: 1a90 b13e a0cc 7f3e 4d53 8a3c e9c4 163e
00000270: 8932 b8bd 43a9 043e 39b3 333d ab14 f83d
00000280: c899 6cbe 956f 263e 671c 703d 9231 0c3e
00000290: 0e3f a0be e110 903d 4713 43bd d537 213e
000002a0: 4309 d43d 5bc2 fb3d b524 b33e 0237 8d3d
000002b0: 6d43 74bc e59b 793d 81f3 64bc 7c2f d03d
000002c0: c094 a1bb 5f75 023c f1a3 56bd 9783 aebd
000002d0: dbdf 803d dfe7 7b3c 70bb 663e afd9 8bbd
000002e0: 7488 eabd 1fb0 a9bd aaab 87be cb38 69be
000002f0: add8 b43c 0094 1abd e563 5bbe 766d af3e
00000300: cf1c 083e 34ba 1d3e 11c2 d33b babd c13c
00000310: 970d 98bd c8da 6e3e 4ac8 453e bc12 2a3c
00000320: 78b8 413e ba4a 05bd d7f7 193e bc44 573e
00000330: e735 b13d aeb6 813e 5196 1ebe 249f 6a3e
00000340: 1a99 debd 75a7 52be 23fd 913d bc70 5e3e
00000350: 9824 fdbd 40d3 c93d a4de a6be c685 583e
00000360: 1bf3 ae3d 2fac 443d e468 55bc b8db 8fbe
00000370: 2ee4 20bd 2148 b3bd 462f c23c 6acf 133c
00000380: f86d 6a3e 3710 3cbc 7148 663e f1f0 da3d
00000390: 674d e63d 9d9b a13c 0179 b3be 17e6 b33d
000003a0: 8ad1 2c3d ac60 4abd 74be 1fbd 5a5c 533e
000003b0: f3cc b1bd f108 bb3e ac09 09be 59ea 01be
000003c0: 6687 3e3b 2ea4 5f3b f7a8 28bd 05c6 14be
000003d0: af98 ba3d 8581 86bb 79ca ea3d 9c9f ef3d
000003e0: 9e7c fb3d 61bc 86bd 4bea 3fbd 746c afbd
000003f0: 0b8d 16be 9659 e93c f8d3 8c3c a2d5 173e

conv2.weight f4 [64, 64, 4, 4]
-0.0020612183 0.009480051 -0.06547022 0.047509335 -0.040089864 0.019806264 0.04078767 0.0049648606
-0.10071687 -0.072007924 -0.030715749 0.017604023 0.04404681 -0.07619259 0.06757696 0.102918334
0.064137705 -0.05335459 -0.048109338 -0.06869871 0.011844073 -0.017997513 0.005486531 -0.022432242
0.0026017562 0.041928727 0.0028477833 0.02923875 0.010373603 -0.05345523 0.033905707 0.0459921
-0.09697173 -0.03295352 -0.018078284 -0.033096183 -0.020177335 0.012071123 0.043468963 0.021943673
0.04027728 0.078169055 -0.028374903 0.013502901 0.0636885 -0.009589075 -0.031118015 0.064163156
-0.071887836 0.044180885 0.01885745 0.1262216 -0.0041016117 0.060633115 -0.032397363 0.03223476
-0.074920885 0.016451677 -0.086970784 -0.050882857 -0.09530797 0.0018711354 -0.04132854 -0.034576643
0.027769899 0.07079758 -0.10108359 -0.06396504 0.049795486 0.0006591021 0.0105968295 -0.020035895
0.07312212 0.027872013 -0.05506517 -0.096232735 -0.045198712 0.08076861 0.04938859 -0.0115033435
-0.006396989 0.030446406 0.08534691 -0.041046795 -0.08697157 -0.023259185 0.025137914 0.01901926
-0.026547153 0.014224828 -0.039072193 0.023243807 0.03831127 -0.017460959 -0.0150748715 -0.0036879953
0.116830945 -0.040144444 -0.014276144 -0.00040791935 0.024653831 -0.029908037 0.0013133358 0.00022090036
0.04654412 0.009130411 -0.021102635 0.026179016 0.013855001 0.03811746 -0.046640944 0.023145702
-0.029642904 -0.055540197 0.026687747 0.03094541 -0.026216742 0.04325751 0.019040633 -0.032693926
-0.05289085 0.05861751 0.00046265803 -0.01121195 0.07493014 0.047044918 -0.011594697 0.0061756712
0.10788629 0.02581969 0.014584138 0.044451293 -0.0092932815 -0.0018616314 -0.066915385 -0.0346554
-0.051261343 -0.047153346 -0.010070007 -0.010943216 -0.0038196933 -0.0060197366 0.030220212 -0.0022052221
0.08731703 0.07835209 0.03334604 0.04787083 -0.055984072 0.03948697 -0.04527383 -0.016660625
-0.077005975 -0.0003271201 0.07219273 0.033272568 0.008542713 -0.08651239 0.058073558 -0.03969531
0.023209356 -0.03130118 -0.0068613775 0.01086081 0.021855028 -0.010857692 -0.0045820684 0.007848331
0.012723783 -0.00072749367 -0.008152194 0.01663694 -0.03455511 0.008774667 0.004618692 0.0008236109
0.02230867 -0.00047692473 -0.005861851 0.014047592 0.0004827018 -0.011522059 -0.0027609041 0.038397346
0.009639586 0.009132977 0.003935545 -0.02212723 0.004657581 0.012179664 0.01192015 0.001928141
-0.014573379 -0.022176426 -0.002175871 0.022653352 0.008704127 -0.008442592 -7.232817e-05 -0.031307176
0.04443483 -0.011883327 -0.04481569 0.030838624 -0.017777689 0.018894868 -0.00055970676 0.005684818
-0.06665341 -0.010708524 0.034302283 0.023561815 -0.074750364 0.008498851 0.010749636 0.0064383275
0.11317961 -0.016148724 -0.02263596 0.00086949463 0.05124221 0.014833129 -0.0022098299 -0.00027991433
-0.07467588 -0.051751405 -0.054775674 -0.075138226 -0.043593604 0.02703033 0.085439354 -0.033637147
0.012333625 0.04412442 -0.08748172 -0.093825646 -0.014289516 -0.07668854 -0.118076935 0.04491524
0.071224965 0.001427304 0.057752274 -0.055112544 -0.023358908 0.008301675 -0.077226825 0.031136919
0.034805343 0.02930337 0.004199041 0.023228018 -0.08470074 0.016378408 0.1071992 -0.035359733
00000000: 8115 07bb 3752 1b3c 4015 86bd 2699 423d
00000010: 4535 24bd bf40 a23c f910 273d 45b0 a23b
00000020: a544 cebd e478 93bd 989f fbbc 5036 903c
00000030: 6e6a 343d dc0a 9cbd ca65 8a3d d9c6 d23d
00000040: a15a 833d 588a 5abd 4c0e 45bd e9b1 8cbd
00000050: a50d 423c 856f 93bc 5cc8 b33b d2c3 b7bc
00000060: 3a82 2a3b 75bd 2b3d e0a1 3a3b 1a86 ef3c
00000070: 0bf6 293c dff3 5abd b6e0 0a3d 3662 3c3d
00000080: 1d99 c6bd 45fa 06bd e918 94bc dd8f 07bd
00000090: f04a a5bc f6c5 453c 830c 323d 38c3 b33c
000000a0: caf9 243d 1917 a03d 7c72 e8bc 463b 5d3c
000000b0: 1e6f 823d 7f1b 1dbc 35eb febc f967 833d
000000c0: ee39 93bd 04f7 343d f07a 9a3c 3c40 013e
000000d0: d066 86bb 6e5a 783d 19b3 04bd 9808 043d
000000e0: 1f70 99bd abc5 863c bd1d b2bd 8b6a 50bd
000000f0: d330 c3bd e340 f53a 1d48 29bd 3da0 0dbd
00000100: b37d e33c 52fe 903d ea04 cfbd 1a00 83bd
00000110: 5af6 4b3d 98c7 2c3a 539e 2d3c 5122 a4bc
00000120: 0dc1 953d d953 e43c 048c 61bd ab15 c5bd
00000130: 4922 39bd 036a a53d b14b 4a3d 8578 3cbc
00000140: d59d d1bb be6a f93c 5cca ae3d af20 28bd
00000150: 271e b2bd 0c8a bebc 07ee cd3c 47ce 9b3c
00000160: 6a79 d9bc 410f 693c 2a0a 20bd cc69 be3c
00000170: 47ec 1c3d 490a 8fbc 98fc 76bc 4bb2 71bb
00000180: 1045 ef3d 806e 24bd 7de6 69bc 02de d5b9
00000190: d5f6 c93c b301 f5bc 3d24 ac3a 7da1 6739
000001a0: 0ca5 3e3d b897 153c 6fdf acbc 6075 d63c
000001b0: 1600 633c 0e21 1c3d 930a 3fbd 0e9c bd3c
000001c0: add5 f2bc 1e7e 63bd 43a0 da3c 3a81 fd3c
000001d0: 7ec4 d6bc c92e 313d 1afb 9b3c 11ea 05bd
000001e0: 13a4 58bd ea18 703d e990 f239 54b2 37bc
000001f0: f974 993d 2cb2 403d aff7 3dbc 495d ca3b
00000200: 7df3 dc3d d183 d33c 4ff2 6e3c 8f12 363d
00000210: d942 18bc fc01 f4ba ef0a 89bd d2f2 0dbd
00000220: 6af7 51bd de23 41bd acfc 24bc 2d4b 33bc
00000230: d253 7abb 3641 c5bb 6190 f73c 7d85 10bb
00000240: 45d3 b23d 1077 a03d db95 083d 3414 443d
00000250: 8e4f 65bd 17bd 213d 0d71 39bd dd7b 88bc
00000260: 4fb5 9dbd 5181 abb9 c8d9 933d d148 083d
00000270: bcf6 0b3c 682d b1bd 8ade 6d3d 8d97 22bd
00000280: 8c21 be3c ab35 00bd 68d5 e0bb 8af1 313c
00000290: 5109 b33c 76e4 31bc 2d25 96bb 4996 003c
000002a0: 6a77 503c 46b5 3eba c890 05bc 314a 883c
000002b0: a989 0dbd 9fc3 0f3c 6658 973b 98e7 573a
000002c0: acc0 b63c c10b fab9 c514 c0bb df27 663c
000002d0: 2413 fd39 05c7 3cbc 49f0 34bb 8946 1d3d
000002e0: 5bef 1d3c 7ba2 153c bff5 803b 2a44 b5bc
000002f0: 9f9e 983b 378d 473c bc4c 433c adb9 fc3a
00000300: 2fc5 6ebc 56ab b5bc 0f99 0ebb 8693 b93c
00000310: c19b 0e3c cc52 0abc e4ae 97b8 f43b 00bd
00000320: 4c01 363d 49b2 42bc a890 37bd 48a1 fc3c
00000330: 84a2 91bc 69c9 9a3c 49b9 12ba b647 ba3b
00000340: 9581 88bd ce72 2fbc 8d80 0c3d b504 c13c
00000350: b816 99bd c43e 0b3c 3e1f 303c 9bf8 d23b
00000360: b6ca e73d 544a 84bc 0c6f b9bc ccee 633a
00000370: 5ae3 513d a706 733c cbd2 10bb 77c1 92b9
00000380: abef 98bd 48f9 53bd 755c 60bd 12e2 99bd
00000390: 358f 32bd b66e dd3c d4fa ae3d 1bc7 09bd
000003a0: f912 4a3c cfbb 343d 9e29 b3bd a927 c0bd
000003b0: 931e 6abc e20e 9dbd 52d2 f1bd 0bf9 373d
000003c0: 65de 913d 6014 bb3a a68d 6c3d b1bd 61bd
000003d0: 2e5b bfbc c003 083c 1929 9ebd da12 ff3c
000003e0: 0c90 0e3d 9f0d f03c 1c98 893b af48 be3c
000003f0: 9577 adbd 032c 863c 418b db3d 5ed5 10bd

conv2.bias f4 [64]
-4.5266776 -0.92043364 -0.6359367 -1.2304236 -0.94353926 0.09631875 -0.05719269 -0.059415646
-0.4616073 -0.9037436 0.5683472 -0.28910717 -0.35684773 -0.18579385 -5.2215133 -0.26528835
-0.27255842 -0.3393012 -1.5520966 -1.024539 -0.35243985 -0.33908507 -0.3341232 -0.12005813
-0.25941956 0.11628441 0.61057884 -0.71055603 -0.08819606 -0.76647115 -0.2753525 0.06425526
0.025679458 -0.75329626 0.2263106 0.10911778 0.23097594 -0.25759152 -0.3074705 -0.24900806
-0.6875595 -0.00597709 -0.6276824 -1.276526 -1.2056224 -0.49709496 0.062930755 -0.38075674
-0.32688776 0.048973303 0.0093972655 -0.13930239 -1.1062976 -0.37598416 -0.20259306 -0.6782831
-0.89195704 -0.30474895 -3.2466145 -0.06568286 0.13174888 -1.1711702 -0.039988846 0.30159736
00000000: 8bda 90c0 8aa1 6bbf bfcc 22bf 857e 9dbf
00000010: ca8b 71bf c442 c53d e242 6abd d25d 73bd
00000020: cb57 ecbe be5b 67bf 347f 113f db05 94be
00000030: bfb4 b6be be40 3ebe a316 a7c0 e0d3 87be
00000040: c78c 8bbe e3b8 adbe 1aab c6bf 1824 83bf
00000050: ff72 b4be 8f9c adbe 3212 abbe 09e1 f5bd
00000060: a4d2 84be 8526 ee3d e54e 1c3f 00e7 35bf
00000070: 23a0 b4bd 7437 44bf 01fb 8cbe 4398 833d
00000080: ba5d d23c 06d8 40bf f7bd 673e 2579 df3d
00000090: f584 6c3e 09e3 83be c66c 9dbe f8fb 7ebe
000000a0: e603 30bf 77db c3bb cbaf 20bf 3465 a3bf
000000b0: d651 9abf 3b83 febe d7e1 803d 8cf2 c2be
000000c0: d55d a7be 3b98 483d fdf6 193c 49a5 0ebe
000000d0: 299b 8dbf ff80 c0be 8e74 4fbe f6a3 2dbf
000000e0: 4c57 64bf 0e08 9cbe 88c8 4fc0 bc84 86bd
000000f0: 2ee9 063e e8e8 95bf 58cb 23bd f86a 9a3e

conv3.weight f4 [64, 64, 3, 3]
-0.14230916 0.0767117 0.11956701 0.11236939 0.04411041 0.07247181 -0.051108036 -0.046378154
0.027829474 -0.0836046 -0.12832473 -0.17185995 -0.0050114244 0.26854715 0.075348556 -0.10157105
0.03422627 0.025627894 -0.11890938 -0.15326618 -0.041543484 0.02344222 -0.04451947 -0.27505273
-0.3138622 -0.12100196 -0.06960795 0.043120746 -0.06407389 -0.14642845 -0.14418706 -0.14079216
0.50595325 -0.060344744 0.04650465 -0.36182868 -0.0626683 -0.0038470156 -0.009146642 0.052499052
0.043743312 0.088911034 0.060734157 -0.09769339 -0.06570974 0.0834245 -0.014831164 0.045985863
0.119435914 0.21992517 -0.05987256 -0.10653688 0.042995423 -0.12099482 0.027665533 0.049202453
-0.037209142 0.020750284 0.11212761 0.054685757 -0.09494111 -0.20795086 -0.14151582 -0.21163134
-0.20989989 -0.14557803 0.026958028 -0.17298988 -0.19863209 -0.28503838 0.016441274 -0.00042605432
0.011302577 -0.031157102 0.09129098 -0.068373464 -0.052365646 -0.11497422 -0.02216589 0.03561554
-0.21968035 -0.051601797 -0.03376338 0.19746312 0.08112627 -0.0037020128 0.09752922 -0.052257195
0.02536877 0.008139246 -0.036266003 0.098727785 0.024238931 -0.24858333 0.06850151 0.22386268
-0.02823514 0.03739749 0.15283 -0.069063276 -0.15967846 0.08846609 0.051614057 0.39170995
0.20218639 0.055164732 -0.06141751 0.0468666 -0.08989071 -0.034048673 0.04558652 -0.13182679
0.08391498 0.01691194 0.062752046 0.18051663 0.05284763 0.016044367 -0.024740184 0.058825985
0.03954213 -0.02966435 -0.03449745 -0.02107004 0.23710784 0.20548174 0.035657857 0.44355586
0.12800889 -0.1432806 0.16115527 -0.013414704 0.053782813 0.15294917 0.11949344 0.096358016
-0.04911016 -0.023381606 -0.16010624 -0.21058168 0.01857665 -0.14846686 -0.14199117 -0.06576652
-0.004158972 -0.013401517 0.07123529 -0.1601589 0.06182629 -0.10075557 0.060281917 -0.10635471
-0.12357937 -0.057856064 -0.020187005 -0.101987734 -0.03132726 0.1251434 -0.36794123 -0.10994793
0.0341765 -0.28160283 0.07220856 -0.13468687 -0.19640648 0.14637613 0.15421839 0.02777735
0.10275393 0.31436428 0.07279267 0.21881627 0.14315122 0.29161802 0.07246844 -0.04390593
-0.017827496 0.20706959 0.11390828 0.014663375 -0.0509529 0.088484645 -0.09857447 0.07051201
-0.090197004 0.035628118 -0.1757305 -0.14477505 -0.39297554 -0.07570119 0.037956413 -0.061005637
-0.03779969 -0.017840546 -0.15142287 0.06943026 -0.0868779 -0.17061408 -0.10947096 -0.092384
-0.057130415 -0.13367274 -0.2671443 -0.07578383 0.0007228523 -0.03681196 -0.0834131 -0.080499
0.09657885 0.27256975 -0.21800627 0.09225231 0.47560546 0.06480072 0.14655143 0.16322507
0.047999207 0.066697314 -0.05860878 0.116197266 0.3125999 0.050258987 0.02032817 0.02318157
-0.05340737 0.20754144 0.019394524 -0.18048438 0.314055 0.10386915 0.011224581 0.007160856
0.040589385 0.06158463 0.06580745 0.38770586 -0.11809011 0.23398447 0.37411714 -0.07249872
0.17633912 0.12396612 0.09143799 0.05895532 0.076920025 0.006909171 -0.026505025 0.18396322
-0.0672181 -0.11800767 0.06158086 -0.105265334 -0.030894171 0.02961114 0.018878551 0.057276715
00000000: 7eb9 11be 061b 9d3d 8cdf f43d ec21 e63d
00000010: 1ead 343d 1a6c 943d a956 51bd 05f7 3dbd
00000020: a3fa e33c e338 abbd 8f67 03be 0efc 2fbe
00000030: e036 a4bb 037f 893e 5850 9a3d 7c04 d0bd
00000040: d830 0c3d 97f1 d13c c386 f3bd cff1 1cbe
00000050: 8029 2abd e609 c03c 0c5a 36bd b6d3 8cbe
00000060: 8cb2 a0be e0cf f7bd 9d8e 8ebd 619f 303d
00000070: 2c39 83bd 57f1 15be c6a5 13be d22b 10be
00000080: 2786 013f 0d2c 77bd a97b 3e3d 9c41 b9be
00000090: 3d58 80bd 361e 7cbb ccdb 15bc 3f09 573d
000000a0: 302c 333d fd16 b63d 61c4 783d 7913 c8bd
000000b0: d492 86bd 77da aa3d 69fe 72bc ac5b 3c3d
000000c0: d19a f43d 1034 613e ee3c 75bd 0230 dabd
000000d0: f81b 303d 22cc f7bd d4a2 e23c 8388 493d
000000e0: 9d68 18bd 80fc a93c 29a3 e53d 2cfe 5f3d
000000f0: 7c70 c2bd 12f1 54be 86e9 10be e3b5 58be
00000100: ffef 56be 6812 15be 15d7 dc3c 4224 31be
00000110: 3666 4bbe 8df0 91be daaf 863c 0b60 dfb9
00000120: 722e 393c 2e3d ffbc c4f6 ba3d 6307 8cbd
00000130: 5c7d 56bd 9b77 ebbd 3e95 b5bc 9ae1 113d
00000140: e3f3 60be 685c 53bd 784b 0abd c633 4a3e
00000150: 8825 a63d 789d 72bb 66bd c73d a40b 56bd
00000160: 2bd2 cf3c 795a 053c a98b 14bd cb31 ca3d
00000170: b990 c63c a18c 7ebe 854a 8c3d 423c 653e
00000180: 614d e7bc 1c2e 193d 787f 1c3e 0c71 8dbd
00000190: c082 23be b62d b53d 4369 533d 358e c83e
000001a0: f309 4f3e 6af4 613d ed90 7bbd 31f7 3f3d
000001b0: 9f18 b8bd 9f76 0bbd eeb8 3a3d 9afd 06be
000001c0: 9edb ab3d e98a 8a3c 2584 803d 5ad9 383e
000001d0: c276 583d 7a6f 833c edab cabc 84f3 703d
000001e0: eef6 213d a702 f3bc 334d 0dbd 149b acbc
000001f0: 66cc 723e ce69 523e f90d 123d c119 e33e
00000200: c314 033e 26b8 12be e305 253e 59c9 5bbc
00000210: 5e4b 5c3d b59e 1c3e fab8 f43d 5a57 c53d
00000220: bc27 49bd c88a bfbc e4f2 23be b9a2 57be
00000230: 0f2e 983c b207 18be 2266 11be 99b0 86bd
00000240: fc47 88bb 0992 5bbc cfe3 913d b200 24be
00000250: 903d 7d3d f058 cebd 2cea 763d 80d0 d9bd
00000260: 2e17 fdbd 7bfa 6cbd 385f a5bc f2de d0bd
00000270: 0351 00bd 9725 003e cb62 bcbe 612c e1bd
00000280: a8fc 0b3d 3f2e 90be 15e2 933d 5beb 09be
00000290: c81e 49be a0e3 153e 6deb 1d3e 538d e33c
000002a0: a770 d23d 5bf4 a03e 5314 953d 5f11 603e
000002b0: 3c96 123e f54e 953e 556a 943d b4d6 33bd
000002c0: f80a 92bc 0d0a 543e bf48 e93d a73e 703c
000002d0: fdb3 50bd 7037 b53d 69e1 c9bd 9a68 903d
000002e0: 35b9 b8bd caee 113d b2f2 33be e93f 14be
000002f0: 1734 c9be 3a09 9bbd 2f78 1b3d 0ce1 79bd
00000300: d9d3 1abd 5626 92bc 990e 1bbe 7431 8e3d
00000310: 0aed b1bd 75b5 2ebe 5032 e0bd d333 bdbd
00000320: 9501 6abd 82e1 08be 23c7 88be 8d34 9bbd
00000330: cc7d 3d3a 23c8 16bd 7dd4 aabd a9dc a4bd
00000340: 22cb c53d 438e 8b3e 093d 5fbe c7ee bc3d
00000350: 8f82 f33e 3db6 843d 9411 163e 7924 273e
00000360: d19a 443d 9a98 883d c30f 70bd d5f8 ed3d
00000370: 180d a03e 5edc 4d3d 4387 a63c 47e7 bd3c
00000380: b0c1 5abd be85 543e 44e1 9e3c e6d0 38be
00000390: d1cb a03e 59b9 d43d 4ee7 373c 9da5 ea3b
000003a0: 0e41 263d 2a40 7c3d 0ec6 863d 6281 c63e
000003b0: 3ad9 f1bd a099 6f3e 488c bf3e 357a 94bd
000003c0: 3e92 343e f3e1 fd3d d743 bb3d 227b 713d
000003d0: 3f88 9d3d 5466 e23b 1121 d9bc db60 3c3e
000003e0: a5a9 89bd 01ae f1bd 363c 7c3d 5a95 d7bd
000003f0: c615 fdbc 1093 f23c 31a7 9a3c fd9a 6a3d

conv3.bias f4 [64]
-1.1461018 -0.54250675 0.2601202 -0.35209507 0.25037944 0.9105247 -0.05177391 0.08112902
0.105876096 0.3025878 -0.61522996 0.46339563 0.6951035 -0.47158617 -0.62705076 -0.07075811
-0.049316652 -0.0803455 -0.22764651 -1.0480441 0.62958515 -0.0021395634 -0.9388875 -1.1707591
0.3035101 0.42979905 0.9193547 -1.5398765 -0.10839653 0.12533689 0.42778146 -0.2531897
0.061454214 0.24035905 -0.39387465 0.5270784 -0.47626886 0.22719832 0.317294 -0.38781995
-1.3140147 1.4300998 1.0711666 0.22221203 0.59835374 0.44086453 -0.91916263 -0.11969243
0.09918938 -0.2995279 -0.5727428 0.38727012 0.014116252 -0.6518573 -0.28999388 0.16304266
0.12321933 -0.976145 -0.2250678 -0.5110446 -0.12905642 2.1600902 0.18468776 -1.7334182
00000000: 77b3 92bf b9e1 0abf 7a2e 853e ce45 b4be
00000010: bc31 803e 2618 693f e110 54bd f926 a63d
00000020: 91d5 d83d caec 9a3e b67f 1dbf 3142 ed3e
00000030: 4ef2 313f be73 f1be 6686 20bf a1e9 90bd
00000040: 4200 4abd 2e8c a4bd 2b1c 69be 4f26 86bf
00000050: 7e2c 213f eb37 0cbb ee5a 70bf 6fdb 95bf
00000060: ad65 9b3e 9f0e dc3e d45a 6b3f ac1a c5bf
00000070: 00ff ddbd 5058 003e 2c06 db3e 15a2 81be
00000080: 6ab7 7b3d af20 763e f0a9 c9be 9cee 063f
00000090: 83d9 f3be ada6 683e 5c74 a23e 5690 c6be
000000a0: a231 a8bf 830d b73f fd1b 893f 8d8b 633e
000000b0: b62d 193f ffb8 e13e 3e4e 6bbf 4e21 f5bd
000000c0: cd23 cb3d b95b 99be 469f 12bf 4548 c63e
000000d0: da47 673c 1fe0 26bf 147a 94be a8f4 263e
000000e0: 6b5a fc3d a4e4 79bf 2c78 66be d2d3 02bf
000000f0: 5e27 04be eb3e 0a40 ca1e 3d3e a6e0 ddbf

conv4.weight f4 [64, 64, 4, 4]
-0.0661682 0.05738334 -0.076599196 0.027101647 -0.091293775 -0.14561856 -0.03969858 0.045615036
-0.12139419 0.072417505 -0.11131778 0.01201469 0.054729104 -0.0045421356 0.0338772 -0.015075881
0.04984032 0.0046946164 -0.029685263 -0.02096502 -0.015426732 -0.13174665 0.08503879 0.0062942677
0.0070368154 -0.07330302 -0.08530858 -0.024719713 -0.08136083 -0.0042775967 -0.016876508 0.018996937
0.07789662 -0.15229887 0.0718766 -0.11720618 -0.12931025 -0.18114036 -0.05926782 -0.23298098
0.15906072 0.007976075 -0.0975134 -0.09407117 0.16719222 -0.08740707 -0.057127573 -0.048920516
-0.008292555 0.09925104 0.091414206 0.047108993 0.09589123 0.21643418 0.33405772 0.1657743
-0.02736671 0.014281301 0.009866014 -0.062477224 -0.19059002 -0.015214882 -0.08629345 -0.014521273
-0.12275622 -0.03596351 -0.012285769 -0.047695544 0.025281709 -0.17032371 -0.009888092 -0.1879572
-0.03906695 -0.075163774 -0.09665011 0.01005121 -0.009194219 0.19446856 -0.02246943 -0.03939394
0.14719906 0.21573323 0.14452557 0.0075736055 0.044015553 -0.1613906 0.15790412 0.1748091
0.059766926 0.19184272 -0.06367289 -0.011026914 0.111024424 0.14657246 0.05801086 -0.13556586
0.08270917 0.08470686 0.025615454 0.044990677 -0.0317105 -0.25875914 -0.004506559 -0.02821258
-0.2630047 -0.13540559 -0.013841776 -0.05334357 -0.1381778 0.10430031 -0.093010694 -0.10997917
-0.12528229 -0.08420971 -0.017121999 0.04603743 -0.06318444 0.30834097 0.08749342 0.01172485
-0.092998184 -0.101297155 -0.077940896 -0.12698393 0.016103262 0.01673513 -0.08581951 0.010557579
0.06923518 -0.020368513 -0.06915031 -0.15171248 0.061137274 -0.009933115 -0.08729948 -0.030629346
0.029831309 -0.038245413 -0.06941478 0.06540826 0.04214238 0.04705341 -0.028041722 -0.018216727
0.04264358 -0.04447967 -0.0069500944 -0.061496027 -0.014564267 -0.03906171 0.01141868 -0.06475098
0.002504 -0.0881326 -0.006569078 0.06644386 0.09287342 0.090380654 0.038932238 0.19360253
0.069838434 0.20462099 -0.08577828 0.18197706 0.06980093 0.13029283 0.059762023 0.07583937
0.13732718 -0.06765292 0.07145112 -0.078431845 0.06971403 0.02456857 -0.018901212 0.048703726
-0.03702163 -0.1587786 -0.1002822 -0.03937435 -0.043482453 -0.2838132 -0.14219719 -0.06454227
-0.077166624 -0.030632196 -0.014479354 0.044192545 0.01736643 0.061877117 0.083002076 0.039367795
-0.174101 0.12214785 -0.09490405 0.06311621 -0.05011221 -0.16372967 -0.077941276 -0.061008338
-0.0704429 -0.28907713 -0.11323302 -0.133127 -0.02862283 -0.033155054 -0.07073602 0.035922054
-0.24407549 -0.08071904 -0.036592968 -0.06499534 -0.1957661 -0.13932408 0.08576094 0.2370354
-0.19959481 -0.025544457 0.14466113 0.23316975 -0.026988132 -0.081854835 -0.025286036 0.2231772
0.04406049 0.16354875 0.07657972 0.11087605 -0.061202295 -0.28711972 0.07569585 0.1290041
0.091733694 -0.02593764 -0.032347113 0.058398582 0.15632354 -0.054986537 -0.0035664847 0.06656611
0.07172962 0.14207655 0.018226484 0.24964558 0.022070019 0.13133886 0.06212398 0.04502685
-0.074887164 0.2620262 -0.17360285 0.2024915 0.065409295 0.14779411 0.07280008 -0.0053959945
00000000: 3183 87bd cb0a 6b3d 0ae0 9cbd 4604 de3c
00000010: 3bf8 babd 081d 15be fa9a 22bd d5d6 3a3d
00000020: 849d f8bd a14f 943d 94fa e3bd 43d9 443c
00000030: a02b 603d 32d6 94bb d2c2 0a3d d400 77bc
00000040: 5d25 4c3d 4cd5 993b 822e f3bc d5be abbc
00000050: 67c0 7cbc 98e8 06be d128 ae3d 2540 ce3b
00000060: 1695 e63b e51f 96bd 44b6 aebd ff80 cabc
00000070: 82a0 a6bd 152b 8cbb 9a40 8abc 779f 9b3c
00000080: 4388 9f3d 3cf4 1bbe 0a34 933d cb09 f0bd
00000090: e869 04be dc7c 39be d0c2 72bd 9192 6ebe
000000a0: d0e0 223e 15ae 023c 1bb5 c7bd 63a8 c0bd
000000b0: 7034 2b3e 7a02 b3bd 9afe 69bd e160 48bd
000000c0: 7fdd 07bc 2144 cb3d 5f37 bb3d 5cf5 403d
000000d0: 9f62 c43d eca0 5d3e 9d09 ab3e bdc0 293e
000000e0: 2730 e0bc 1efc 693c 10a5 213c 1ee8 7fbd
000000f0: 082a 43be d747 79bc 9fba b0bd a2ea 6dbc
00000100: 9d67 fbbd 794e 13bd 404a 49bc 675c 43bd
00000110: 961b cf3c 5769 2ebe aa01 22bc da77 40be
00000120: ab04 20bd 77ef 99bd 7ef0 c5bd d5ad 243c
00000130: 59a3 16bc c422 473e cf11 b8bc 8a5b 21bd
00000140: 5abb 163e 2ce9 5c3e 83fe 133e 022c f83b
00000150: a749 343d 9443 25be 9eb1 213e 2801 333e
00000160: 2ace 743d 6b72 443e ef66 82bd 3baa 34bc
00000170: c660 e33d 1717 163e cc9c 6d3d c7d1 0abe
00000180: 6d63 a93d ca7a ad3d 80d7 d13c 2548 383d
00000190: dfe2 01bd 147c 84be c2ab 93bb 121e e7bc
000001a0: 8da8 86be c3a7 0abe 9ec8 62bc ca7e 5abd
000001b0: 7b7e 0dbe 679b d53d 647c bebd c23c e1bd
000001c0: 004a 00be 2476 acbd 6f43 8cbc bf91 3c3d
000001d0: d866 81bd dede 9d3e c02f b33d 9619 403c
000001e0: d575 bebd e274 cfbd 7a9f 9fbd 1308 02be
000001f0: fdea 833c 1d18 893c 24c2 afbd b2f9 2c3c
00000200: 2dcb 8d3d dedb a6bc ad9e 8dbd 845a 1bbe
00000210: 146b 7a3d 81be 22bc 12ca b2bd 65ea fabc
00000220: ca60 f43c 39a7 1cbd 5629 8ebd c4f4 853d
00000230: 7d9d 2c3d 14bb 403d c1b7 e5bc 3f3b 95bc
00000240: 09ab 2e3d 5030 36bd 9ebd e3bb 42e3 7bbd
00000250: f79e 6ebc 2cff 1fbd 6a15 3b3c 299c 84bd
00000260: 261a 243b dd7e b4bd 6c41 d7bb b813 883d
00000270: 6b34 be3d 7e19 b93d 6977 1f3d be3f 463e
00000280: 7407 8f3d 2a88 513e 86ac afbd 3258 3a3e
00000290: caf3 8e3d 7c6b 053e 06c9 743d ac51 9b3d
000002a0: 7f9f 0c3e 9d8d 8abd f754 923d e0a0 a0bd
000002b0: 3bc6 8e3d 0744 c93c b7d6 9abc 8f7d 473d
000002c0: fea3 17bd db96 22be c160 cdbd 0047 21bd
000002d0: a81a 32bd f74f 91be 249c 11be bd2e 84bd
000002e0: 8909 9ebd 5ff0 fabc d03a 6dbc 3e03 353d
000002f0: 0b44 8e3c dc72 7d3d fefc a93d 2040 213d
00000300: 8847 32be a728 fa3d 0e5d c2bd 1243 813d
00000310: 7642 4dbd c0a8 27be ad9f 9fbd e1e3 79bd
00000320: 5e44 90bd eb01 94be b7e6 e7bd 7252 08be
00000330: 6d7a eabc 98cd 07bd 0cde 90bd 0123 133d
00000340: edee 79be 0650 a5bd 82e2 15bd 471c 85bd
00000350: e976 48be f9aa 0ebe 6fa3 af3d 68b9 723e
00000360: 9562 4cbe 9c42 d1bc 0c22 143e 0dc4 6e3e
00000370: 3716 ddbc 82a3 a7bd a924 cfbc 9088 643e
00000380: c678 343d 5379 273e d4d5 9c3d fc12 e33d
00000390: 42af 7abd 5b01 93be 6d06 9b3d a719 043e
000003a0: e0de bb3d 2c7b d4bc 687e 04bd 5a33 6f3d
000003b0: 4713 203e 9039 61bd afbb 69bb d053 883d
000003c0: fbe6 923d 847c 113e b54f 953c 17a3 7f3e
000003d0: 2fcc b43c b27d 063e b775 7e3d 136e 383d
000003e0: 715e 99bd 4c28 863e f2c4 31be ef59 4f3e
000003f0: 4ff5 853d 5757 173e 3518 953d e2d0 b0bb

conv4.bias f4 [64]
-0.4973563 -0.16623893 -0.2244771 -0.19820759 0.64092517 -0.7347815 -1.3035231 0.19674753
-0.72521275 0.30043367 0.051285148 -0.44365996 -0.3519162 -1.3985655 -0.058475282 -1.206395
-0.5764102 -2.86436 -0.488527 0.21038455 -0.48528415 -1.3644353 -3.434472 -0.010525652
-0.8725485 0.17472993 0.21757936 0.040960845 0.5829455 -0.41402322 -0.48713517 -0.4712066
0.19197118 -0.34180406 0.22807197 -1.04587 -0.9579171 -0.08652328 -0.85635495 -0.64761394
-0.47140115 -0.917359 -0.45661563 -0.36061114 -0.39765778 -0.22896208 -0.44221607 -0.82151544
-1.8611635 -0.22073655 -0.7880331 -0.2658861 0.42882168 0.4783127 0.08494516 -0.6259202
0.28422546 -0.80168355 0.1327755 0.6869238 -0.6280654 -1.195246 -0.1530956 -0.08248628
00000000: 7ca5 febe 8a3a 2abe 53dd 65be eef6 4abe
00000010: ac13 243f a41a 3cbf d8d9 a6bf 2f78 493e
00000020: 8ba7 39bf 71d2 993e 6010 523d 6627 e3be
00000030: 5c2e b4be 3204 b3bf c783 6fbd 276b 9abf
00000040: 9e8f 13bf ad51 37c0 3620 fabe 0c6f 573e
00000050: 2a77 f8be d1a5 aebf 64ce 5bc0 c973 2cbc
00000060: 575f 5fbf 67ec 323e 20cd 5e3e 8fc6 273d
00000070: eb3b 153f dafa d3be c869 f9be fe41 f1be
00000080: 1894 443e f100 afbe b38b 693e 11df 85bf
00000090: 0e3a 75bf 1e33 b1bd 143a 5bbf 07ca 25bf
000000a0: 7e5b f1be 0ad8 6abf 86c9 e9be 06a2 b8be
000000b0: cd99 cbbe 0975 6abe 256a e2be d64e 52bf
000000c0: 9b3a eebf c308 62be 8abc 49bf 3922 88be
000000d0: 848e db3e 67e5 f43e baf7 ad3d 4e3c 20bf
000000e0: 0086 913e 223b 4dbf 4df6 073e 3dda 2f3f
000000f0: e5c8 20bf d2fd 98bf 18c5 1cbe 91ee a8bd

conv5.weight f4 [64, 64, 3, 3]
-0.075609215 -0.26478156 -0.038398586 -0.07151326 -0.16968647 -0.13325088 0.08386721 -0.044907223
-0.11070724 0.0036461418 -0.0029144506 -0.0039475174 -0.008920003 -0.0022239406 -0.008946986 -0.020549273
-0.011405841 -0.04171907 0.009635585 0.019492105 0.03126281 0.005945176 -0.020673623 0.043916706
-0.03691238 -0.028051356 -0.013809356 0.0660892 0.05985516 0.08422021 0.046984628 0.032459144
0.093110494 0.020060528 -0.030459141 -0.032313786 -0.039148234 -0.027171921 -0.011601564 0.048055686
0.056709968 0.09321333 0.050575804 0.08808577 0.09157268 -0.02911703 0.013897881 -0.05302083
-0.0029227163 0.018998418 -0.06233656 -0.04258119 -0.058274847 -0.09205728 0.021097274 0.030489704
0.047055025 0.055112317 -0.026800282 0.014693349 -0.032560755 -0.14021075 -0.21312045 -0.009046688
-0.0036175782 0.0119518535 -0.0047563543 0.05049861 -0.035018753 -0.013782474 0.025755664 0.017322658
-0.065660134 -0.038392976 -0.089452006 -0.030076092 -0.111524165 -0.13556804 0.0134808635 -0.083504565
-0.10039172 0.0440451 -0.002366018 -0.0145751275 0.036128946 0.029434117 -0.0888483 0.04947959
0.060350098 -0.01113405 0.04444889 0.048622783 -0.0018263228 0.013437149 0.06501032 0.016712537
-0.027657831 0.024694234 0.028453453 -0.18006615 -0.2194783 -0.14841352 -0.011278558 -0.0033939383
-0.00088772003 -0.042406213 -0.0015889157 -0.0145965265 -0.028734135 -0.14037716 -0.045570727 -0.10485649
-0.13844298 -0.029063731 0.012924912 0.012231965 -0.031093724 0.026949147 0.14363821 0.09157206
0.035573997 0.12991315 0.07535129 0.0712644 0.15787478 0.14574985 -0.009694674 0.011782905
0.007126461 0.016514774 0.010105417 -0.0041515734 0.0076242974 0.005571377 0.017376872 -0.017370498
0.04371409 0.015499393 -0.035939083 0.03219092 0.013404064 0.06167246 0.12785883 0.123763226
-0.0031174887 -0.020865709 -0.039951775 -0.02994502 -0.031330384 -0.10513538 0.02953735 -0.039462596
-0.13577071 0.0032922474 -0.02463747 0.18487814 0.059541352 -0.0048017674 0.21526997 0.12584814
0.04984076 0.18752164 0.013418212 -0.0059930873 -0.007984296 -0.016470129 -0.053986132 -0.059429634
-0.011946803 -0.0055585466 -0.006930058 0.019135708 -0.00048023614 -0.023113586 0.006469971 0.0024693073
-0.061642237 -0.054508105 -0.062705874 -0.19417867 -0.20673466 -0.6495121 -0.47230124 -0.34945235
-0.42982715 -0.29273534 -0.042024642 -0.045305606 0.04194091 -0.005574142 -0.04082431 -0.07741565
0.04882977 -0.028671717 -0.038408935 0.036497343 -0.011501791 -0.0034091594 -0.020807365 -0.016996574
-0.017950563 -0.029360322 -0.044322837 -0.009222112 -0.0045346464 -0.0063047586 0.004244683 0.056549758
0.019055132 0.0033724941 0.031965073 0.06939364 0.028566217 0.09150117 0.018482171 0.06422205
-0.009318084 0.008849424 0.014360918 -0.009956013 0.005276824 -0.006165297 -0.02453883 -0.010268987
0.037357517 -0.056714825 -0.12449873 -0.013697981 0.029567251 0.058162633 0.09235207 0.055397477
0.040153034 0.19758259 -0.00021171336 0.060929812 0.0010095302 0.09239163 0.09990469 0.005840215
0.0137830805 0.03179747 0.014591811 0.024092484 0.057264585 0.052659433 0.0576736 0.09994919
0.090047084 0.07205289 0.13429722 0.1072917 0.016411 0.012330118 0.03160747 -0.024263443
00000000: 01d9 9abd 7391 87be d647 1dbd 8b75 92bd
00000010: 4ac2 2dbe eb72 08be 92c2 ab3d a3f0 37bd
00000020: 7aba e2bd 1cf4 6e3b 5e00 3fbb 2d5a 81bb
00000030: 3425 12bc 88bf 11bb 6196 12bc f356 a8bc
00000040: 91df 3abc 9ee1 2abd 93de 1d3c e8ad 9f3c
00000050: 6f0d 003d c0cf c23b bb5b a9bc 01e2 333d
00000060: 7031 17bd f5cb e5bc a340 62bc c659 873d
00000070: af2a 753d a57b ac3d f472 403d e1f3 043d
00000080: b7b0 be3d fa55 a43c 7385 f9bc 765b 04bd
00000090: e659 20bd a697 debc 7c14 3ebc 0ad6 443d
000000a0: b648 683d a1e6 be3d 9328 4f3d 5066 b43d
000000b0: 758a bb3d d686 eebc f0b3 633c 5f2c 59bd
000000c0: 0b8b 3fbb 92a2 9b3c 9f54 7fbd 9d69 2ebd
000000d0: 9bb1 6ebd 8788 bcbd 31d4 ac3c 8bc5 f93c
000000e0: c5bc 403d 74bd 613d 448c dbbc 5fbc 703c
000000f0: 6d5e 05bd 6893 0fbe 3f3c 5abe 8f38 14bc
00000100: e414 6dbb b5d1 433c 31db 9bbb a1d7 4e3d
00000110: d36f 0fbd e3cf 61bc 8bfd d23c 3fe8 8d3c
00000120: d278 86bd f441 1dbd 9d32 b7bd 2362 f6bc
00000130: c866 e4bd 59d2 0abe d7de 5c3c 7104 abbd
00000140: 2d9a cdbd a368 343d 320f 1bbb 84cc 6ebc
00000150: f2fb 133d d11f f13c 19f6 b5bd 1cab 4a3d
00000160: aa31 773d 976b 36bc 0a10 363d af28 473d
00000170: 3961 efba 7d27 5c3c 2124 853d bbe8 883c
00000180: ad92 e2bc 904b ca3c 3717 e93c 4363 38be
00000190: ebbe 60be b7f9 17be b3c9 38bc d66c 5ebb
000001a0: e2b5 68ba 23b2 2dbd 2a43 d0ba 4526 6fbc
000001b0: d963 ebbc 08bf 0fbe 5fa8 3abd 00bf d6bd
000001c0: ffc3 0dbe 1017 eebc 03c3 533c 9468 483c
000001d0: 44b8 febc 75c4 dc3c e515 133e 228a bb3d
000001e0: 0ab6 113d f407 053e c751 9a3d 12f3 913d
000001f0: eda9 213e 733f 153e 69d6 1ebc 160d 413c
00000200: 1685 e93b fe49 873c 3191 253c ec09 88bb
00000210: 3ed5 f93b 1990 b63b f159 8e3c 934c 8ebc
00000220: 8c0d 333d 2bf1 7d3c dc34 13bd a0da 033d
00000230: b89c 5b3c 439c 7c3d 6ded 023e 9377 fd3d
00000240: c84e 4cbb 90ee aabc 79a4 23bd 424f f5bc
00000250: 4a54 00bd 3851 d7bd 50f8 f13c 88a3 21bd
00000260: 7a07 0bbe bfc2 573b 85d4 c9bc b250 3d3e
00000270: a2e1 733d 2558 9dbb bb6f 5c3e 56de 003e
00000280: d325 4c3d ac05 403e 0fd8 5b3c a961 c4bb
00000290: 91d0 02bc 5dec 86bc 9020 5dbd 7d6c 73bd
000002a0: 86bc 43bc 7824 b6bb 8a15 e3bb 7dc2 9c3c
000002b0: 34c8 fbb9 b458 bdbc 0d02 d43b 1ad4 213b
000002c0: 927c 7cbd e443 5fbd f06b 80bd c6d6 46be
000002d0: 40b2 53be 6d46 26bf 78d1 f1be 6beb b2be
000002e0: 4e12 dcbe 68e1 95be 0822 2cbd 5f92 39bd
000002f0: 3bca 2b3d 4ba7 b6bb 6437 27bd 198c 9ebd
00000300: ba01 483d f3e0 eabc b052 1dbd 3d7e 153d
00000310: 0272 3cbc 346c 5fbb 3574 aabc 663c 8bbc
00000320: 0f0d 93bc 0f85 f0bc dd8b 35bd 5718 17bc
00000330: 5f97 94bb 2698 cebb fb16 8b3b b8a0 673d
00000340: 8219 9c3c 1005 5d3b cfed 023d 411e 8e3d
00000350: b303 ea3c f764 bb3d ec67 973c da86 833d
00000360: e1aa 18bc 2dfd 103c 0e4a 6b3c 8c1e 23bc
00000370: 35e9 ac3b 4206 cabb a805 c9bc 413f 28bc
00000380: 3204 193d ce4d 68bd 31f9 febd 7f6d 60bc
00000390: 0537 f23c f13b 6e3d 1523 bd3d 77e8 623d
000003a0: 8277 243d 1753 4a3e 5fff 5db9 8a91 793d
000003b0: 3652 843a d337 bd3d d59a cc3d 465f bf3b
000003c0: 6ed2 613c 103e 023d 7e12 6f3c 9a5d c53c
000003d0: 458e 6a3d 6bb1 573d 273b 6c3d 29b2 cc3d
000003e0: 9b6a b83d 7790 933d 3685 093e c0bb db3d
000003f0: 5d70 863c 4304 4a3c d676 013d 21c4 c6bc

conv5.bias f4 [64]
-0.65669197 -2.3691924 0.07316743 -3.4388871 0.29660583 -3.2724986 -5.94626 -0.16860287
-2.0246677 -6.1968546 -8.49871 0.5439092 0.42136732 -3.4903512 -2.9628255 -2.9486299
0.173105 -3.2447941 -1.5123786 -0.9618012 -2.654752 -1.2544832 -6.69197 -6.302007
-5.0622 -0.009458799 -4.1614246 0.41841173 0.25497603 0.22292717 -2.811409 -5.474372
0.39696962 -3.2100406 -3.8274486 -0.9274514 -0.3918881 0.029915348 -2.1444438 0.48699948
-2.8240843 -3.6222882 -7.3924513 0.60990405 -3.4343596 -3.6144216 -2.7817204 0.35126057
-0.03580731 -2.631233 -2.7661355 -16.45046 -4.228077 0.40130657 0.55011696 -1.5957046
0.3422814 -4.7893343 -0.25279862 -3.629951 -4.675434 0.43441856 -2.341553 -0.288171
00000000: f71c 28bf d9a0 17c0 ced8 953d ba16 5cc0
00000010: b8dc 973e 9e70 51c0 c347 bec0 3ba6 2cbe
00000020: 2894 01c0 a24c c6c0 b7fa 07c1 a23d 0b3f
00000030: 75bd d73e ea61 5fc0 ef9e 3dc0 5ab6 3cc0
00000040: 7042 313e b5aa 4fc0 9f95 c1bf 9a38 76bf
00000050: 75e7 29c0 e892 a0bf 9e24 d6c0 0baa c9c0
00000060: 8bfd a1c0 14f9 1abc 642a 85c0 103a d63e
00000070: 388c 823e 0547 643e 20ee 33c0 0e2e afc0
00000080: 9a3f cb3e 4e71 4dc0 ebf4 74c0 746d 6dbf
00000090: 8fa5 c8be 0811 f53c 913e 09c0 ff57 f93e
000000a0: ccbd 34c0 92d3 67c0 f68e ecc0 ac22 1c3f
000000b0: 8ccc 5bc0 af52 67c0 b507 32c0 6dd8 b33e
000000c0: b0aa 12bd 1f66 28c0 5d08 31c0 8b9a 83c1
000000d0: 684c 87c0 0e78 cd3e 77d4 0c3f 0c40 ccbf
000000e0: 823f af3e 3a42 99c0 d26e 81be 1e51 68c0
000000f0: 289d 95c0 1c6c de3e 01dc 15c0 268b 93be
