Verification_Models/encoder/hyper_encoder_uv.onnx (onnx, 760204 bytes, 10 tensors)

conv1.weight f4 [64, 64, 3, 3]
0.25941187 -0.19179878 -0.109313294 -0.0034132095 -0.36769512 -0.30795595 0.211278 -0.2123844
-0.15075728 -0.00031016266 -0.16142468 0.11264073 0.012201294 -0.0073552174 0.015789535 0.028809957
-0.060680512 0.030899838 -0.010354955 -0.115627885 0.055936813 0.16269459 0.049412485 0.08636251
0.0406617 0.03628234 0.11448186 0.0063289427 -0.26044783 -0.09406595 -0.07168312 0.04279696
-0.043674886 -0.020991841 -0.027681347 0.047636334 -0.12751284 -0.15411112 -0.15990317 -0.019589117
-0.020445416 -0.10913078 -0.1654271 0.052937508 -0.09368248 -0.2875255 -0.48034787 -0.14116867
0.037829198 -0.041297473 0.09495437 0.06017472 -0.07518514 0.11011542 0.19262515 -0.032982413
-0.032267615 -0.027294409 -0.011483926 0.12063773 0.08877314 0.036313776 0.08534931 0.04752647
0.019187378 0.057095498 -0.0030835536 0.021468552 -0.0038137573 -0.0033036547 0.03540175 -0.045278486
-0.15839384 -0.07408829 0.042235058 -0.077452496 -0.14983273 -0.08318178 -0.10628508 -0.06325098
-0.0141570205 0.14819874 -0.20533806 -0.09587506 0.09470106 -0.12941432 -0.27445275 0.12859452
-0.027580835 -0.30754015 0.12985027 0.08254638 0.24795333 -0.13265643 0.198742 -0.0335171
-0.12676527 0.06450573 -0.3121935 0.066861324 -0.105432004 0.04409132 -0.055845454 0.055276457
0.008430667 0.043898884 -0.08359991 -0.03991426 -0.16528976 -0.34394172 -0.26954466 -0.03875366
0.16759677 -0.0062086335 0.08128443 0.15569916 0.39105013 0.055208232 -0.16703965 0.016916122
-0.067883916 -0.036809538 -0.053208545 0.15862134 -0.01174886 -0.0324631 0.08978266 0.12904681
0.103419706 0.029856192 0.051451806 0.092061535 0.1020984 -0.036731184 0.024224453 0.012874054
0.037180606 -0.005949722 -0.0058602025 -0.03951706 0.041203123 0.0052667665 -0.02936194 0.08537439
0.050184406 -0.17159642 -0.16361663 0.064983875 0.0033492686 -0.0867832 0.09447784 0.0069967704
0.13354567 0.105080016 0.02687585 0.2963545 -0.027852956 -0.055584013 0.3390101 -0.023313621
0.023669435 0.39670148 0.1407527 -0.04988042 0.12477346 0.1523445 0.08014818 0.22629057
0.11272073 -0.082895376 -0.021405332 0.021572033 -0.13005084 -0.019080577 0.09368736 -0.069540635
-0.17818224 0.04451308 0.10390276 -0.18469685 -0.012480974 -0.19662121 -0.20783867 -0.07261075
-0.08644638 -0.16017935 -0.035602383 -0.0765571 0.027182342 -0.15970132 -0.061075896 0.073901035
0.03961978 0.15904558 0.08343621 0.21906845 0.1874642 0.12091166 -0.11568545 -0.18375987
-0.11074105 0.022167135 0.009394441 -0.2655561 0.011200152 -0.036241937 -0.07034807 -0.052743584
0.073695734 0.03987525 -0.040188607 -0.005857596 -0.07536298 0.050763756 0.011291964 0.101226695
-0.026243804 -0.0122569855 -0.027821004 -0.012428095 -0.0010520836 0.03843911 -0.001079696 -0.05388394
0.024730079 -0.04824157 -0.12967925 0.01093744 -0.159175 -0.036615536 -0.038487416 -0.060520075
-0.029826138 -0.13584675 -0.05857933 -0.08359064 0.13594647 -0.048629686 0.040260315 0.22990336
-0.011613613 0.10307786 0.20625734 -0.008535619 -0.32294285 0.06582669 0.1573365 -0.036237214
0.052729987 -0.033311617 -0.007037428 -0.08524477 0.030760482 0.078900784 0.10709086 0.011602788
00000000: a2d1 843e e666 44be a6df dfbd 27b0 5fbb
00000010: 8942 bcbe 67ac 9dbe 4359 583e 4c7b 59be
00000020: 1e60 1abe 549d a2b9 834c 25be 2fb0 e63d
00000030: f0e7 473c 0904 f1bb 0e59 813c dc02 ec3c
00000040: 218c 78bd a821 fd3c d4a7 29bc 50ce ecbd
00000050: 001e 653d 6999 263e bf64 4a3d d4de b03d
00000060: e28c 263d ca9c 143d 7775 ea3d 0563 cf3b
00000070: 6b59 85be a6a5 c0bd 9ace 92bd dd4b 2f3d
00000080: 70e4 32bd 15f7 abbc fec3 e2bc 511e 433d
00000090: ba92 02be 4ecf 1dbe a8bd 23be 5b79 a0bc
000000a0: 257d a7bc f57f dfbd b965 29be 00d5 583d
000000b0: 9adc bfbd 8b36 93be 28f0 f5be 858e 10be
000000c0: caf2 1a3d 8a27 29bd 7077 c23d c479 763d
000000d0: abfa 99bd 3184 e13d 873f 453e 9118 07bd
000000e0: 0c2b 04bd 8698 dfbc 1427 3cbc ea10 f73d
000000f0: b1ce b53d c1bd 143d 9ecb ae3d 1eab 423d
00000100: d92e 9d3c f8dc 693d 7215 4abb d1de af3c
00000110: 3bf0 79bb 2182 58bb 6d01 113d ef75 39bd
00000120: ff31 22be 9abb 97bd abfe 2c3d 6a9f 9ebd
00000130: c06d 19be 365b aabd feab d9bd bb89 81bd
00000140: d9f2 67bc 69c1 173e 2444 52be 255a c4bd
00000150: a1f2 c13d 3085 04be 1285 8cbe 48ae 033e
00000160: 34f1 e1bc e775 9dbe 78f7 043e 140e a93d
00000170: 7ae7 7d3e 16d7 07be 0683 4b3e 3a49 09bd
00000180: c1ce 01be 951b 843d d4d7 9fbe 97ee 883d
00000190: bcec d7bd 1a99 343d 34be 64bd 9169 623d
000001a0: c820 0a3c 51cf 333d 6e36 abbd 237d 23bd
000001b0: b841 29be 2119 b0be c201 8abe 28bc 1ebd
000001c0: 7d9e 2b3e cb71 cbbb 7478 a63d 9a6f 1f3e
000001d0: b937 c83e 0722 623d 710c 2bbe ae93 8a3c
000001e0: b906 8bbd 99c5 16bd 34f1 59bd a26d 223e
000001f0: 4a7e 40bc 07f8 04bd f9df b73d d924 043e
00000200: b6cd d33d f994 f43c 21bf 523d c28a bc3d
00000210: f718 d13d 7073 16bd 5c72 c63c b2ed 523c
00000220: b14a 183d e3f5 c2bb f106 c0bb a4dc 21bd
00000230: 9bc4 283d d794 ac3b 7488 f0bc c5d8 ae3d
00000240: 2a8e 4d3d f9b6 2fbe 1e8b 27be 4416 853d
00000250: 677f 5b3b 64bb b1bd 997d c13d 2a45 e53b
00000260: 32c0 083e 3134 d73d be2a dc3c c7bb 973e
00000270: e22b e4bc 10ac 63bd bb92 ad3e 35fc bebc
00000280: 67e6 c13c 751c cb3e 7a21 103e 694f 4cbd
00000290: 3a89 ff3d 3200 1c3e bb24 a43d b7b8 673e
000002a0: 20da e63d 0dc5 a9bd 3c5a afbc d5b7 b03c
000002b0: 0c2c 05be df4e 9cbc 29df bf3d 526b 8ebd
000002c0: 6875 36be 5953 363d f8ca d43d 2c21 3dbe
000002d0: 007d 4cbc 1257 49be a9d3 54be f2b4 94bd
000002e0: cd0a b1bd 0e06 24be ced3 11bd f8c9 9cbd
000002f0: 81ad de3c be88 23be b82a 7abd 6d59 973d
00000300: 5a48 223d d8dc 223e 9be0 aa3d 7b53 603e
00000310: 9ef6 3f3e 88a0 f73d 7eec ecbd 8c2b 3cbe
00000320: 34cc e2bd da97 b53c 24eb 193c f8f6 87be
00000330: d880 373c 6d72 14bd a612 90bd a809 58bd
00000340: caed 963d 3b54 233d cf9c 24bd 14f1 bfbb
00000350: e857 9abd a8ed 4f3d ee01 393c f14f cf3d
00000360: 3ffd d6bc 86d1 48bc e0e8 e3bc 359f 4bbc
00000370: 11e6 89ba 5472 1d3d 9684 8dba 68b5 5cbd
00000380: bc96 ca3c f498 45bd a3ca 04be f332 333c
00000390: c5fe 22be 2cfa 15bd fba4 1dbd e6e3 77bd
000003a0: f255 f4bc 691b 0bbe e1f0 6fbd 9231 abbd
000003b0: 8d35 0b3e ec2f 47bd 00e8 243d c96b 6b3e
000003c0: 0647 3ebc 7c1a d33d 2035 533e fbd8 0bbc
000003d0: c458 a5be 25d0 863d d21c 213e 796d 14bd
000003e0: 66fb 573d c371 08bd 3a9a e6bb cf94 aebd
000003f0: 68fd fb3c bc96 a13d 7452 db3d 9f19 3e3c

conv1.bias f4 [64]
-0.17604029 -0.26067173 -0.32498923 -0.09025526 -0.09396913 -0.214024 0.10711547 -0.03801302
-0.2042848 0.040421635 -0.18784714 -0.22808424 -0.14485689 -0.16016586 -0.09099865 -0.1386413
-0.21115583 -0.11572981 0.079877146 0.0004991287 -0.04219604 -0.01845343 0.030216502 0.097021416
-0.16344206 -0.08444824 -0.023809452 0.20367149 -0.058691423 -0.029019793 0.031813785 -0.018246684
-0.1051107 -0.16269296 -0.12475985 -0.1791274 -0.40648532 -0.059680365 -0.058551606 -0.120862156
0.2539968 0.05053182 -0.14914629 -0.041322444 -0.025865542 0.0033763293 -0.024674902 0.07078511
-0.08540503 0.20458402 -0.07536562 0.11915625 -0.12264266 -0.047447696 0.3605355 -0.21298169
0.161482 -0.23601958 -0.073034056 -0.10016562 0.011037639 -0.04279338 -0.095748454 0.26635808
00000000: e843 34be c476 85be fd64 a6be c0d7 b8bd
00000010: e372 c0bd 1c29 5bbe 5b5f db3d 8ab3 1bbd
00000020: 0930 51be 2891 253d 005b 40be ea8e 69be
00000030: 5d55 14be 8502 24be 805d babd fcf7 0dbe
00000040: 3c39 58be c003 edbd a196 a33d f6d7 023a
00000050: c1d5 2cbd a62b 97bc 9988 f73c 2ab3 c63d
00000060: 5b5d 27be 33f3 acbd 0a0c c3bc 428f 503e
00000070: 6b66 70bd ebba edbc 2c4f 023d 127a 95bc
00000080: 4744 d7bd fc98 26be 1882 ffbd 2c6d 37be
00000090: d81e d0be 6673 74bd cfd3 6fbd 9486 f7bd
000000a0: de0b 823e 74fa 4e3d ceb9 18be b941 29bd
000000b0: f9e3 d3bc 6845 5d3b 0523 cabc c9f7 903d
000000c0: d5e8 aebd 797e 513e 4a59 9abd 3108 f43d
000000d0: 132c fbbd 8458 42bd 1c98 b83e df17 5abe
000000e0: 8a5b 253e 1eaf 71be e192 95bd a223 cdbd
000000f0: 37d7 343c 1c48 2fbd c417 c4bd 1660 883e

conv2.weight f4 [64, 64, 3, 3]
-0.1481776 -0.08818439 -0.063750856 -0.102311455 -0.03372212 -0.09761022 0.06473482 -0.029483145
0.1643928 0.0984475 -0.10681802 0.015618344 0.0016960985 -0.1465101 -0.15888102 -0.066884845
-0.015181874 0.09417882 0.07867189 0.036315788 0.019725973 -0.027723903 -0.0231287 -0.09404037
0.093032755 -0.009894076 -0.050736982 0.024827737 -0.028308878 0.11196953 -0.10435142 -0.16918153
-0.11187273 -0.15189724 -0.13238642 -0.07647719 0.021779679 -0.009108683 -0.017735155 -0.037382178
-0.056686405 0.07680231 -0.076644786 -0.10634051 0.08084773 -0.06571067 -0.055855136 -0.05230194
-0.1517582 -0.36583096 -0.13055325 -0.12075707 -0.1997736 0.027921427 0.055446446 -0.010036558
0.026049182 -0.01553462 -0.07988342 -0.07852214 -0.032912027 0.035018552 0.0038160163 0.006102556
-0.01628551 0.022403732 0.0035075783 -0.014306061 0.016945198 0.0010528453 -0.013944123 3.0261368e-05
-0.048485223 -0.051005103 -0.06868514 -0.10945757 0.032578208 0.040027574 0.042262014 0.15962951
0.35350952 0.030665789 -0.03130754 -0.022362579 0.021109417 -0.05391355 0.07273385 -0.09315129
-0.07640769 -0.03737886 -0.030224502 -0.10354291 -0.1018027 0.0146876015 -0.09748268 -0.06256139
0.014403634 -0.00069129665 -0.0049259947 -0.016491355 0.025110697 0.045500346 -0.08509154 -0.028140536
0.026011387 -0.0074775256 0.013661014 0.07449722 0.03246946 -0.08774248 0.116512254 0.13658728
0.06493975 0.13517845 0.18492363 0.07193474 0.19125152 -0.049087178 -0.01993645 0.10240017
-0.02901199 -0.067781486 0.07201013 0.014486207 0.14460602 0.10284161 0.005071416 0.108064845
0.08364131 0.038510703 -0.06447281 -0.022014998 -0.16935316 0.011009722 -0.037430685 0.066867314
0.048686992 0.1274764 -0.05233655 -0.07935049 0.11074111 -0.033242133 0.13528141 0.18896088
-0.02248491 -0.112972565 0.11134458 -0.24562952 -0.25245297 -0.08770349 -0.07092897 -0.06003552
0.022771245 0.15781826 0.0011798646 0.10706639 -0.032283247 -0.04762689 0.070895165 0.22332658
0.15548664 0.22351964 0.08253013 0.008646517 0.010613991 0.0051311823 -0.0186271 0.038928546
0.065028764 -0.10535685 -0.20255046 0.048101712 -0.034312237 -0.014434981 0.0477999 -0.01154419
-0.08865484 -0.08006981 -0.014302795 -0.077808864 0.032221466 0.075383365 0.12964132 0.109478116
0.033331037 0.049419355 0.11877778 0.037931588 0.15378581 0.004227098 0.031682733 0.0059105316
0.045924634 -0.11483599 -0.09756167 0.14229949 0.0040160064 0.08211815 -0.03614741 -0.060642466
0.014897395 -0.018077448 0.0041745454 -0.021997906 0.014568501 -0.028595017 0.0065316977 -0.14529087
-0.0056375656 -0.15870732 -0.094081126 0.040443607 -0.11679206 -0.07522694 -0.010140755 -0.1910778
0.02788919 -0.074323125 0.04732811 0.031966966 -0.020592295 -0.02333595 0.03344979 -0.051216874
-0.0960681 -0.041296586 -0.015097984 0.095598646 -0.007866616 0.009037784 0.07753771 0.14247589
0.03746411 0.10528472 -0.08761743 0.037134953 0.08796698 -0.039945662 0.06494797 -0.021855777
0.1964906 0.07115553 -0.11883154 0.04181532 0.05952004 0.029495269 -0.008351912 -0.15045145
-0.044880833 -0.07740768 -0.108066335 -0.19842766 0.010215337 0.02448792 0.15048331 0.0407458
00000000: debb 17be 049a b4bd cf8f 82bd ab88 d1bd
00000010: 3520 0abd dee7 c7bd b093 843d a386 f1bc
00000020: 9656 283e d89e c93d 68c3 dabd 15e4 7f3c
00000030: 9f4f de3a be06 16be b5b1 22be ecfa 88bd
00000040: 65bd 78bc d3e0 c03d ba1e a13d ddbf 143d
00000050: 5d98 a13c 3d1d e3bc 6678 bdbc 3d98 c0bd
00000060: f587 be3d c31a 22bc 95d1 4fbd 8a63 cb3c
00000070: 05e8 e7bc 4850 e53d 33b6 d5bd ec3d 2dbe
00000080: 881d e5bd f38a 1bbe 4e90 07be 13a0 9cbd
00000090: 4c6b b23c 963c 15bc 5149 91bc 0e1e 19bd
000000a0: 0130 68bd 884a 9d3d f1f7 9cbd 0ec9 d9bd
000000b0: 7f93 a53d 5193 86bd 5bc8 64bd 8f3a 56bd
000000c0: 8066 1bbe 324e bbbe c0af 05be 7c4f f7bd
000000d0: 7391 4cbe 7abb e43c d01b 633d 6070 24bc
000000e0: 1865 d53c eb84 7ebc eb99 a3bd 37d0 a0bd
000000f0: c3ce 06bd 9d6f 0f3d 2116 7a3b f3f7 c73b
00000100: 3169 85bc 0888 b73c 66df 653b f863 6abc
00000110: a8d0 8a3c a0ff 893a e475 64bc cbd9 fd37
00000120: 7198 46bd baea 50bd cbaa 8cbd 4a2b e0bd
00000130: ba70 053d f4f3 233d ef1a 2d3d eb75 233e
00000140: 33ff b43e d236 fb3c 563c 00bd ba31 b7bc
00000150: a8ed ac3c 74d4 5cbd 7cf5 943d 1bc6 bebd
00000160: a37b 9cbd 931a 19bd 6099 f7bc 4e0e d4bd
00000170: ef7d d0bd 44a4 703c 00a5 c7bd 3020 80bd
00000180: 38fd 6b3c 2238 35ba 3d6a a1bb e118 87bc
00000190: f3b4 cd3c 925e 3a3d 7944 aebd fb86 e6bc
000001a0: d515 d53c 0806 f5bb 72d2 5f3c 0092 983d
000001b0: b2fe 043d 54b2 b3bd fa9d ee3d 89dd 0b3e
000001c0: 22ff 843d 386c 0a3e 9f5c 3d3e 8552 933d
000001d0: 70d7 433e a30f 49bd c451 a3bc 2eb7 d13d
000001e0: 8eaa edbc 05d1 8abd 0c7a 933d 8e57 6d3c
000001f0: 9a13 143e 9f9e d23d 1f2e a63b 1a51 dd3d
00000200: 234c ab3d 66bd 1d3d 520a 84bd cc58 b4bc
00000210: ea6a 2dbe 1f62 343c eb50 19bd bbf1 883d
00000220: 036c 473d 2c89 023e da5e 56bd 8282 a2bd
00000230: 3ccc e23d e728 08bd 3687 0a3e f67e 413e
00000240: 4632 b8bc 295e e7bd a108 e43d 4e86 7bbe
00000250: 8441 81be e39d b3bd 3543 91bd cee7 75bd
00000260: c38a ba3c 1c9b 213e b0a5 9a3a a045 db3d
00000270: 703b 04bd 6a14 43bd 7c31 913d b9af 643e
00000280: e437 1f3e 55e2 643e 8f05 a93d 1faa 0d3c
00000290: 4ee6 2d3c 7a23 a83b dc97 98bc 8a73 1f3d
000002a0: cd2d 853d 55c5 d7bd 6369 4fbe 4d06 453d
000002b0: fd8a 0cbd b380 6cbc d4c9 433d d823 3dbc
000002c0: ab90 b5bd a4fb a3bd 4556 6abc 415a 9fbd
000002d0: a8fa 033d 9862 9a3d b2c0 043e 1036 e03d
000002e0: 2086 083d f36b 4a3d c441 f33d 275e 1b3d
000002f0: 077a 1d3e 7883 8a3b c1c5 013d 22ad c13b
00000300: 781b 3c3d 222f ebbd 6ace c7bd f5b6 113e
00000310: b498 833b 902d a83d 4e0f 14bd 3c64 78bd
00000320: 3414 743c 2817 94bc a0ca 883b f434 b4bc
00000330: b9b0 6e3c 1940 eabc da07 d63b 21c7 14be
00000340: 54bb b8bb 2c84 22be 9bad c0bd 32a8 253d
00000350: ad30 efbd 9510 9abd 6925 26bc e6a9 43be
00000360: df77 e43c b936 98bd 1fdb 413d cbef 023d
00000370: 2cb1 a8bc 092b bfbc a602 093d c9c8 51bd
00000380: 5abf c4bd 9c26 29bd 895d 77bc 39c9 c33d
00000390: fbe2 00bc 3713 143c 17cc 9e3d 33e5 113e
000003a0: f773 193d 849f d73d c470 b3bd d21a 183d
000003b0: 0828 b43d 109e 23bd 7103 853d e30a b3bc
000003c0: d534 493e feb9 913d f35d f3bd 8a46 2b3d
000003d0: 49cb 733d 10a0 f13c 75d6 08bc f20f 1abe
000003e0: f7d4 37bd eb87 9ebd e251 ddbd 9f30 4bbe
000003f0: 3b5e 273c e49a c83c 4c18 1a3e 11e5 263d

conv2.bias f4 [64]
-0.03446412 -0.0040010507 -0.024583898 -0.030665245 -0.009655874 -0.004649958 -7.062563e-05 -0.0077055115
0.010521915 0.009161225 0.020947287 -0.0017573979 -0.0050468957 0.0023679684 0.002037002 -0.0061837514
0.03872551 -0.006463945 0.08609027 -0.0051009264 -0.015315902 -0.0522001 -0.035253074 0.010301537
0.024080817 -0.020086607 -0.0072841328 -0.011826363 -0.010785971 -0.0151121365 0.08647671 0.014869117
-0.022447372 -0.008727012 0.0025335134 0.0184056 -0.014668368 -0.008289573 0.005716035 0.021110568
-0.0018349426 -0.0016650188 -0.0016307059 0.014285371 -0.030794743 -0.0058997446 -0.00354425 0.012281728
-0.013054088 -0.0074807056 0.014320397 -0.018735696 -0.000617065 -0.005026154 0.0021655143 -0.01212824
0.009072024 -0.0011648885 -0.017429091 -0.0096912375 -0.01616626 -0.005357442 0.0041187243 -0.014023983
00000000: 402a 0dbd 3f1b 83bb 2c64 c9bc ae35 fbbc
00000010: ac33 1ebc ad5e 98bb d91c 94b8 847e fcbb
00000020: 1c64 2c3c f618 163c a599 ab3c 7d58 e6ba
00000030: 6e60 a5bb eb2f 1b3b 397f 053b 11a1 cabb
00000040: a49e 1e3d 80cf d3bb 1850 b03d ac25 a7bb
00000050: 8def 7abc c6cf 55bd 8765 10bd c7c7 283c
00000060: 2245 c53c ab8c a4bc bcaf eebb 5dc3 41bc
00000070: a4b7 30bc e598 77bc b41a b13d 999d 733c
00000080: 8de3 b7bc befb 0ebc 4d09 263b 57c7 963c
00000090: 9853 70bc fdd0 07bc 944d bb3b 12f0 ac3c
000000a0: 7582 f0ba c33c daba 69bd d5ba 300d 6a3c
000000b0: 4245 fcbc a552 c1bb a646 68bb 4d39 493c
000000c0: d0e0 55bc b520 f5bb 19a0 6a3c 9a7b 99bc
000000d0: 88c2 21ba 70b2 a4bb 4deb 0d3b 87b5 46bc
000000e0: d4a2 143c 2caf 98ba 74c7 8ebc ffc7 1ebc
000000f0: 1b6f 84bc 7b8d afbb 5df6 863b d9c4 65bc

conv3.weight f4 [64, 64, 3, 3]
-0.026496531 0.025975948 0.058330253 0.009071935 0.053335924 -0.012869053 -0.035666313 0.04575766
-0.11039585 -0.027653107 0.010578001 0.06462216 0.016772306 0.00723977 -0.017036084 -0.08661326
-0.047673956 -0.058038224 0.071895465 -0.050574403 -0.020369384 -0.05706016 -0.020846287 -0.0836071
0.106564015 -0.03359869 -0.032447018 -0.005548691 0.058137547 0.007051304 0.043766927 0.054986835
0.011832352 0.08013681 -0.0075367056 0.059513167 0.05595905 0.023795944 -0.10816525 -0.012261233
-0.0213232 0.01779782 0.036040537 -0.05711352 0.08614337 0.023494799 0.059142742 0.038636986
-0.07415789 0.01535301 0.025532609 -0.04766799 0.08497655 0.053368106 -0.085045494 -0.10950853
0.020868247 0.10867801 -0.008711855 0.041176725 -0.143935 0.012039073 0.106279805 0.042412225
-0.053940948 -0.06778817 0.06297701 0.008290123 0.03266067 0.036934868 0.033595793 -0.029285384
0.0019221281 -0.010626273 0.08831894 0.08454817 -0.029239982 -0.0095449295 -0.060322326 0.026076151
-0.15957129 -0.15344244 -0.046853993 0.06710545 0.0067820325 0.052853968 0.02118553 -0.009210755
0.0810023 -0.077489555 -0.05532194 0.090228446 0.0946534 -0.0048607397 0.052084554 0.035917148
-0.07472213 -0.030417353 -0.111636244 0.063835904 -0.011117606 -0.06942661 -0.042484228 0.08741518
0.013931543 0.04805663 -0.021290526 -0.03180999 0.06318916 0.0032565226 0.03606709 -0.011339571
-0.060405023 -0.040582128 -0.073102936 0.012050727 0.015371689 0.02487183 -0.11389909 -0.014136084
0.02622683 -0.007931483 0.048195083 0.0045836037 0.0028339191 0.02066644 -0.030916814 -0.018941928
-0.0037791831 0.036189158 -0.005521373 -0.012841416 -0.015502638 -0.06268683 -0.025875174 0.0055958787
0.042697866 0.17151198 -0.034136485 -0.00781433 -0.08738042 0.050249744 0.036770035 -0.12112268
0.08122549 -0.03429564 -0.017992828 -0.043705013 -0.007946118 -0.00032672446 -0.14771114 -0.020125125
0.031577244 0.081444055 0.0498814 -0.096340664 -0.08578566 0.030421427 -0.039849147 -0.0027134144
0.027438445 0.075397 -0.07810954 0.01778742 -0.06445134 0.0065184706 0.10535077 0.1921674
-0.080516264 0.11062504 0.20897985 0.13297585 -0.039000526 -0.042297315 -0.05269681 -0.081917524
0.052969743 -0.003076914 0.0073607694 0.06184037 -0.10200967 -0.06059317 0.017707204 -0.04038592
0.045011338 0.06877084 -0.09260256 -0.040932085 0.058448456 0.0838862 0.062978536 0.1414456
-0.019733887 -0.04258623 -0.12070759 0.09190047 -0.104538076 -0.05477773 -0.05974703 -0.07791057
0.077672414 -0.0040798164 -0.10023553 -0.086664565 0.033414464 -0.02013904 0.048343223 0.0021338346
0.10312787 -0.03531081 0.008685153 0.023002753 -0.011391651 0.037854802 0.08056208 -0.025825512
0.011211868 0.016732873 0.0071841497 0.056858003 0.0342019 0.024621092 0.013672563 0.0073274225
-0.05553926 -0.07894376 0.05425339 -0.10421267 -0.07572619 0.13310033 0.09754031 -0.07445734
0.07193866 0.12069049 -0.048690483 0.010154413 0.141913 0.04548437 0.009962677 0.03682263
-0.005619363 -0.0010929287 -0.060904544 -0.0024749541 -0.030113375 0.025641663 0.049660455 -0.02333315
0.03972488 0.04025558 -0.016887967 -0.025577467 -0.10557581 -0.06116426 0.1327017 0.08615938
00000000: 410f d9bc 83cb d43c b4eb 6e3d 74a2 143c
00000010: c576 5a3d b8d8 52bc d716 12bd 626c 3b3d
00000020: 3817 e2bd c588 e2bc 5a4f 2d3c 9f58 843d
00000030: 1366 893c 983b ed3b 428f 8bbc 4b62 b1bd
00000040: c445 43bd 7db9 6dbd ee3d 933d 1b27 4fbd
00000050: b2dd a6bc eab7 69bd d5c5 aabc 333a abbd
00000060: 3c3e da3d c89e 09bd 2ae7 04bd cbd1 b5bb
00000070: a321 6e3d a00e e73b f344 333d e039 613d
00000080: 7bdc 413c c51e a43d 78f6 f6bb 14c4 733d
00000090: 5135 653d b6ef c23c be85 ddbd 57e3 48bc
000000a0: fead aebc bccc 913c 3e9f 133d deef 69bd
000000b0: ef6b b03d 2a78 c03c a93f 723d d141 1e3d
000000c0: 18e0 97bd 318b 7b3c c329 d13c 833f 43bd
000000d0: 2f08 ae3d 8498 5a3d 552c aebd 0246 e0bd
000000e0: e3f3 aa3c 9492 de3d 2bbc 0ebc eda8 283d
000000f0: b263 13be 883f 453c 3aa9 d93d 71b8 2d3d
00000100: 2ff1 5cbd 86d4 8abd 17fa 803d 4cd3 073c
00000110: 32c7 053d 0449 173d be9b 093d e7e7 efbc
00000120: ebef fb3a d219 2ebc 8fe0 b43d 9727 ad3d
00000130: b088 efbc 5662 1cbc 8b14 77bd a79d d53c
00000140: a866 23be 0420 1dbe f9e9 3fbd 956e 893d
00000150: d03b de3b 677d 583d 478d ad3c b5e8 16bc
00000160: 89e4 a53d d8b2 9ebd 4299 62bd b1c9 b83d
00000170: a4d9 c13d d746 9fbb 9d56 553d dc1d 133d
00000180: eb07 99bd d02d f9bc 8ba1 e4bd 66bc 823d
00000190: 9f26 36bc 8a2f 8ebd f103 2ebd bb06 b33d
000001a0: 2041 643c 07d7 443d 7869 aebc 314b 02bd
000001b0: 5169 813d 626b 553b 16bb 133d 9cc9 39bc
000001c0: 426b 77bd 7239 26bd feb6 95bd 6a70 453c
000001d0: 89d9 7b3c 02c0 cb3c ed43 e9bd 099b 67bc
000001e0: a6d9 d63c 0df3 01bc 3568 453d 0e32 963b
000001f0: 46b9 393b aa4c a93c 4245 fdbc 1a2c 9bbc
00000200: 2cac 77bb 153b 143d a2ec b4bb cd64 52bc
00000210: c7fe 7dbc f461 80bd 2cf8 d3bc a25d b73b
00000220: f5e3 2e3d d6a0 2f3e b3d2 0bbd ad07 00bc
00000230: 81f4 b2bd add2 4d3d 2d9c 163d 2b0f f8bd
00000240: 8d59 a63d 9679 0cbd b265 93bc 0704 33bd
00000250: 6f30 02bc 374c abb9 9741 17be 72dd a4bc
00000260: 2457 013d 24cc a63d 7050 4c3d 414e c5bd
00000270: 64b0 afbd 5b36 f93c dc38 23bd 8ad3 31bb
00000280: 97c6 e03c be69 9a3d e5f7 9fbd ecb6 913c
00000290: 10ff 83bd e598 d53b 25c2 d73d 88c7 443e
000002a0: b6e5 a4bd 628f e23d d0fe 553e d22a 083e
000002b0: 04bf 1fbd f33f 2dbd 9cd8 57bd 60c4 a7bd
000002c0: cdf6 583d 0da6 49bb 9c32 f13b 544c 7d3d
000002d0: 72ea d0bd 8b30 78bd b30e 913c b56b 25bd
000002e0: cf5d 383d bad7 8c3d 69a6 bdbd 67a8 27bd
000002f0: a667 6f3d 87cc ab3d e4fa 803d 1ed7 103e
00000300: f6a8 a1bc e66e 2ebd 8a35 f7bd 5036 bc3d
00000310: 0f18 d6bd 9d5e 60bd 4db9 74bd 948f 9fbd
00000320: b712 9f3d fbaf 85bb 4948 cdbd 317d b1bd
00000330: 9bdd 083d a1fa a4bc 8b03 463d ced7 0b3b
00000340: b434 d33d 11a2 10bd 2c4c 0e3c 4570 bc3c
00000350: 0ca4 3abc a30d 1b3d bbfd a43d 0690 d3bc
00000360: fcb1 373c 6113 893c 0469 eb3b f0e3 683d
00000370: 4b17 0c3d 2cb2 c93c e302 603c e01a f03b
00000380: 237d 63bd 44ad a1bd cd38 5e3d 746d d5bd
00000390: 5516 9bbd 744b 083e 37c3 c73d 177d 98bd
000003a0: 9454 933d 932c f73d ac6f 47bd b25e 263c
000003b0: a451 113e d24d 3a3d 7f3a 233c 53d3 163d
000003c0: a222 b8bb 9a40 8fba 0b77 79bd d732 22bb
000003d0: 53b0 f6bc 770e d23c c368 4b3d 2a25 bfbc
000003e0: 8eb6 223d 09e3 243d a258 8abc d687 d1bc
000003f0: 2138 d8bd 6087 7abd f4e2 073e 5474 b03d

conv3.bias f4 [64]
0.034219097 -0.09858263 -0.38798404 -0.08508083 -0.009161416 -0.10237879 0.00025582514 0.058158472
-0.28255644 -0.43535948 -0.2473934 -0.064353235 -0.020564802 -0.39201194 -0.06256889 -0.40975714
-0.00067393866 -0.45382407 0.0727527 -0.31687745 -0.014682504 -0.28364348 0.014361208 0.00028634365
-0.049458705 -0.52218586 -0.59775734 -0.440645 -0.041909646 -0.20427437 -0.044586048 -0.2500344
0.042282537 -0.53507006 -0.25949654 -0.10026183 -0.140373 0.004428458 -0.8870481 -0.2639213
-0.6365177 0.037307132 -0.3878192 -0.099245735 -0.17522834 0.06103798 0.03708931 -0.080909684
0.02246635 -0.34905675 0.044272 -0.00986815 -0.0072685117 -0.5141186 -0.14405634 -0.35818753
0.01362049 -0.34507725 -0.081428126 -0.4396292 0.027895097 -0.01408391 -0.19895454 -0.0038324448
00000000: 5329 0c3d b1e5 c9bd d8a5 c6be dc3e aebd
00000010: c419 16bc f9ab d1bd 4520 8639 9437 6e3d
00000020: 3dab 90be 70e7 debe b254 7dbe a1cb 83bd
00000030: 8477 a8bc cab5 c8be 1e24 80bd b0cb d1be
00000040: 42ab 30ba a15b e8be 5eff 943d c33d a2be
00000050: e38e 70bc b839 91be 464b 6b3c 6520 9639
00000060: 3695 4abd f9ad 05bf a006 19bf 399c e1be
00000070: 73a9 2bbd 4d2d 51be dc9f 36bd 8204 80be
00000080: 7430 2d3d 5afa 08bf bbdc 84be 1356 cdbd
00000090: f1bd 0fbe 991c 913b 9615 63bf b120 87be
000000a0: d3f2 22bf 5dcf 183d 3d90 c6be 5941 cbbd
000000b0: 0f6f 33be f602 7a3d f6ea 173d fab3 a5bd
000000c0: 5a0b b83c 91b7 b2be 8f56 353d 05ae 21bc
000000d0: b22c eebb 479d 03bf 8183 13be 5b64 b7be
000000e0: 7a28 5f3c f7ad b0be cac3 a6bd 1417 e1be
000000f0: 4284 e43c 33c0 66bc bdba 4bbe c129 7bbb

conv4.weight f4 [64, 64, 3, 3]
0.02453472 0.0004814026 0.023195555 -0.038867813 0.041672844 0.020683702 -0.00843875 -0.020295693
-0.032892432 0.0076901317 0.019235969 -0.020045683 0.020147065 -0.039369017 -0.006085314 -0.046586383
0.009036767 0.014912743 0.088898234 0.041749112 0.10206995 -0.141734 0.27420068 0.11884221
0.30290967 0.08047688 -0.07074037 0.005990638 0.012477913 0.0034934585 -0.013545422 -0.0044007483
0.04021026 0.0015852434 -0.022700137 0.30182686 0.023757463 -0.0022976426 -0.002336701 0.059761647
-0.040709972 -0.01062463 0.02107225 -0.04125952 -0.02189067 -0.0232844 -0.07223511 0.05116102
-0.02091573 -0.004598237 0.08666329 -0.028643463 -0.040359814 0.2597297 -0.006766629 -0.0023280454
-0.008342917 -0.023540033 -0.008146786 0.0018520624 -0.021813061 -0.03549598 0.02947985 0.022230938
-0.0007163772 -0.0031537334 -0.008471611 -0.006180268 -0.004021131 0.02036027 -0.03671978 -0.0077245114
0.11698091 -0.01084327 -0.14705159 0.1515964 0.20082068 0.06359153 -0.0062200236 -0.20141554
-0.2910907 -0.050904054 0.14406192 0.21826214 -0.13038136 -0.2598411 0.12642051 -0.23395278
-0.33923486 -0.36685982 -0.01459243 -0.32684523 -0.055317707 -0.07937496 0.08493912 -0.03278832
-0.108562805 0.049052157 -0.029129915 -0.010619819 -0.039429467 0.046782024 -0.011306 -0.0864674
0.013734033 -0.14639086 0.05684974 -0.16090328 0.03290455 -0.034716006 0.035123266 -0.0031321517
-0.024315061 0.010646372 0.02452929 -0.014092593 -0.023627613 0.0022239692 0.13254113 0.1972518
-0.15380211 -0.1056434 0.011704582 0.07713618 0.35370108 0.9688166 0.0072522424 0.0003740458
-0.030585293 -0.04375764 -0.02694179 0.03382362 0.0068918336 -0.055718977 0.027463509 -0.022449348
-0.20997019 -0.10727199 0.053808372 -0.12147818 0.0152218575 0.14827693 0.18309425 0.23470296
-0.027316352 -0.020963209 -0.0134502025 -0.0004085124 -0.010837803 0.039958645 -0.060757227 -0.095427416
0.012039342 0.2538371 -0.051319998 0.01672681 -0.033524152 -0.16935876 0.1530947 0.057255555
0.17879264 0.0938725 -0.013142297 -0.0014273025 0.010457961 -0.004760669 -0.028516065 -0.024919331
0.006010637 0.027236687 -0.031803012 0.12125885 0.21695332 -0.029041542 -0.2491597 0.063119985
-0.032243993 -0.012495926 0.31880268 -0.24098268 -0.033694427 -0.0076202154 0.025046514 0.03440056
-0.04502816 0.042824246 -0.049816854 -0.036138725 -0.013813428 -0.022520604 -0.16084349 -0.016978497
-0.0030259092 -0.26363927 0.22830258 0.018344399 -0.40993184 0.10973542 0.01118643 -0.02116722
-0.010197134 0.0013540136 -0.03021212 0.1622325 0.01502085 -0.051646963 -0.10940541 -0.00092620944
-0.036725815 -0.02284789 -0.01038168 -0.0023863607 -0.026669601 -0.026120855 -0.08898788 0.020737266
0.0065050274 0.005343707 -0.02007093 0.0070190555 0.030226106 -0.03992215 -0.010906674 0.16161273
0.55698705 0.10518452 0.28840184 0.21224616 -0.3146616 0.009700913 0.1950542 -0.32242703
0.14281091 0.3203375 0.057468932 -0.23340534 -0.072997734 -0.06875023 -0.02161862 -0.33725098
-0.08436141 -0.100334965 -0.28729707 0.2699132 -0.4274599 0.013086593 0.27569395 -0.16042097
0.052881118 0.33003673 -0.15638813 0.36593154 -0.005555438 -0.02795987 -0.11773382 0.01329528
00000000: 0afd c83c c364 fc39 9b04 be3c db33 1fbd
00000010: 25b1 2a3d de70 a93c af42 0abc 2743 a6bc
00000020: 37ba 06bd 80fd fb3b c094 9d3c d836 a4bc
00000030: 750b a53c 6841 21bd 5067 c7bb 5dd1 3ebd
00000040: f30e 143c 9454 743c 4710 b63d 1e01 2b3d
00000050: 0d0a d13d b822 11be 0864 8c3e 8b63 f33d
00000060: fa16 9b3e 10d1 a43d 54e0 90bd 1d4d c43b
00000070: 2970 4c3c 82f2 643b 9eed 5dbc 2734 90bb
00000080: 83b3 243d f1c7 cf3a a3f5 b9bc 0d89 9a3e
00000090: 039f c23c 0c94 16bb 5623 19bb a1c8 743d
000000a0: 80bf 26bd ee12 2ebc b69f ac3c beff 28bd
000000b0: 1054 b3bc edbe bebc 00f0 93bd 388e 513d
000000c0: 7757 abbc cfac 96bb 867c b13d b2a5 eabc
000000d0: 5550 25bd 4bfb 843e 99ba ddbb 1f92 18bb
000000e0: bbb0 08bc 07d7 c0bc 197a 05bc e7c0 f23a
000000f0: 4eb1 b2bc 3c64 11bd ba7f f13c a81d b63c
00000100: 43cb 3bba deae 4ebb 83cc 0abc d883 cabb
00000110: b1c3 83bb 95ca a63c 7b67 16bd e61d fdbb
00000120: b093 ef3d f9a7 31bc b194 16be 163c 1b3e
00000130: f0a3 4d3e 473c 823d 57d1 cbbb e03f 4ebe
00000140: d709 95be c580 50bd f884 133e 1c80 5f3e
00000150: b182 05be e509 85be 6174 013e 5191 6fbe
00000160: 31b0 adbe 0dd5 bbbe 1615 6fbc 4258 a7be
00000170: d294 62bd 578f a2bd 90f4 ad3d 0c4d 06bd
00000180: 2d56 debd eaea 483d dca1 eebc c0fe 2dbc
00000190: cb80 21bd 829e 3f3d cd3c 39bc d215 b1bd
000001a0: b604 613c 7ce7 15be 46db 683d d4c3 24be
000001b0: ecc6 063d 5f32 0ebd 6add 0f3d c944 4dbb
000001c0: 6130 c7bc 1f6e 2e3c a6f1 c83c 9fe4 66bc
000001d0: b28e c1bc 03c0 113b ddb8 073e 60fc 493e
000001e0: 4d7e 1dbe 915b d8bd 93c4 3f3c 93f9 9d3d
000001f0: 4f18 b53e 5d04 783f 38a4 ed3b 941b c439
00000200: 028e fabc 363b 33bd 07b5 dcbc a38a 0a3d
00000210: e4d4 e13b 9539 64bd 27fb e03c b2e7 b7bc
00000220: 6d02 57be 6bb1 dbbd 2b66 5c3d 8dc9 f8bd
00000230: 1965 793c e8d5 173e 0f7d 3b3e f955 703e
00000240: 8bc6 dfbc 09bb abbc 3d5e 5cbc 9b2d d6b9
00000250: 0a91 31bc adab 233d 92dc 78bd 736f c3bd
00000260: a940 453c f0f6 813e eb34 52bd aa06 893c
00000270: 9f50 09bd 626c 2dbe dbc4 1c3e cd84 6a3d
00000280: 6b15 373e 3a40 c03d ca52 57bc 5314 bbba
00000290: de57 2b3c 63ff 9bbb 869a e9bc a023 ccbc
000002a0: e1f4 c43b 791f df3c e043 02bd 8f56 f83d
000002b0: 0329 5e3e 87e8 edbc b823 7fbe 0d45 813d
000002c0: 4712 04bd b6bb 4cbc 1b3a a33e 2ac4 76be
000002d0: 2b03 0abd 00b3 f9bb 592e cd3c 9ae7 0c3d
000002e0: 736f 38bd 7a68 2f3d c20c 4cbd 3306 14bd
000002f0: b751 62bc 217d b8bc 28b4 24be 7d16 8bbc
00000300: 554e 46bb bafb 86be 27c8 693e fe46 963c
00000310: 96e2 d1be f7bc e03d 4a47 373c e166 adbc
00000320: e111 27bc 2879 b13a 687f f7bc 4720 263e
00000330: 031a 763c c48b 53bd f20f e0bd ddcc 72ba
00000340: cf6d 16bd 802b bbbc ec17 2abc 7d64 1cbb
00000350: 357a dabc 67fb d5bc 473f b6bd 33e1 a93c
00000360: 2028 d53b 431a af3b ca6b a4bc 1b00 e63b
00000370: bd9c f73c 6985 23bd e8b1 32bc cf7d 253e
00000380: b496 0e3f fb6a d73d 68a9 933e 0f57 593e
00000390: 531b a1be 94f0 1e3c 4abc 473e 2815 a5be
000003a0: 063d 123e 4703 a43e 8b64 6b3d cf01 6fbe
000003b0: d67f 95bd eccc 8cbd 8819 b1bc 29ac acbe
000003c0: adc5 acbd 6b7c cdbd 9a18 93be 1032 8a3e
000003d0: 06dc dabe 2669 563c c227 8d3e 6545 24be
000003e0: df99 583d 93fa a83e 3624 20be 615b bb3e
000003f0: 640a b6bb 190c e5bc 6e1e f1bd 72d4 593c

conv4.bias f4 [64]
-0.006852154 0.006388186 -0.00021554588 0.0008956921 0.00066573854 -0.0060700155 -0.0019677489 0.0022171254
0.0026570968 -0.0024973787 0.008945759 -0.0013108829 0.0026077738 0.0016521602 0.0012038455 -0.00062129885
0.0088276155 0.0005630721 -0.007971892 -0.015634328 -0.005059613 -2.5953457e-05 0.0002003547 -0.023257388
0.00057101593 0.023110123 -0.001382093 0.0065162987 0.022607416 0.014641635 0.0066161784 -0.0011498693
0.011480149 -0.009802329 -0.0043930705 0.008262844 0.010244786 0.021351745 -0.0008883995 0.0034336066
0.0012888585 0.001092483 -0.0032995406 0.0027725303 0.003050333 -0.0029021585 0.0075229877 -0.0025479167
0.017127806 0.0048845634 -0.0013540696 -0.009514473 0.0030588089 0.0029411556 -0.0031679252 -0.00079937995
-0.002987221 0.0018894557 0.03488822 -0.0115557285 0.007089838 -0.037064403 0.00083822105 -0.0028467732
00000000: 0988 e0bb fd53 d13b 2804 62b9 e1cc 6a3a
00000010: f584 2e3a fbe6 c6bb 59f5 00bb 314d 113b
00000020: b022 2e3b 10ab 23bb 3c91 123c eed1 abba
00000030: 2fe7 2a3b 4c8d d83a 5aca 9d3a a9de 22ba
00000040: b4a1 103c 219b 133a 8a9c 02bc 9013 80bc
00000050: 1ccb a5bb a0b6 d9b7 4e16 5239 4786 bebc
00000060: 3bb0 153a 7151 bd3c 5827 b5ba ad86 d53b
00000070: 3033 b93c 78e3 6f3c 87cc d83b 36b7 96ba
00000080: 3c17 3c3c f399 20bc bff3 8fbb e160 073c
00000090: bfd9 273c dbe9 ae3c 7be3 68ba 5c06 613b
000000a0: eaee a83a a631 8f3a 1b3d 58bb 57b3 353b
000000b0: 18e8 473b 2432 3ebb 6583 f63b f3fa 26bb
000000c0: 9d4f 8c3c b00e a03b 097b b1ba 98e2 1bbc
000000d0: 4c76 483b 67c0 403b f79c 4fbb 7b8d 51ba
000000e0: 41c5 43bb 9da7 f73a f3e6 0e3d 3d54 3dbc
000000f0: df51 e83b d8d0 17bd 10bc 5b3a ee90 3abb

conv5.weight f4 [64, 64, 3, 3]
-0.004818196 0.0024100482 0.0005033381 0.0012983916 0.0039374908 -0.0026075821 -0.0009440406 -0.0032351685
0.002903007 0.0011693783 0.0057383063 -0.010011326 -0.005097999 0.012568356 0.009740448 -0.0023863162
-0.0018803655 -0.0045536053 -0.003242533 0.003393696 -0.0029275862 -0.0030185282 -0.0034424376 0.0040964154
0.0026982476 0.0006768815 -0.00046354046 0.0044909534 -0.0012683276 -0.0023060027 -0.0026240866 -0.0019533455
0.0043735765 -4.3947173e-05 0.0026349484 -0.005018808 0.0005304209 -0.0045314333 0.0035422936 -0.0010518173
0.0071540605 -0.0094346665 -0.0013868095 -0.0025120024 0.0022757489 0.0029981951 -0.0012290034 -0.004731183
-0.010805688 0.025639065 -0.00042778644 0.0020151169 -0.012916203 0.0019693929 9.505774e-05 0.0012976318
-0.0028772524 -0.0025602838 0.0030098453 -0.0011399162 0.00021087434 0.00061455765 0.0017995837 -0.0008283934
-0.0022252062 0.0057375194 0.0009933594 -0.0020293915 -0.0050788918 0.0017288073 0.00058782607 0.0027975556
0.0008477742 -0.0001578993 0.0015359087 0.0013089083 -0.0029957367 0.001896271 0.00026682141 0.0017947842
-0.00302114 -6.5954446e-05 0.0058918493 -0.002248437 0.0033126732 -0.003163131 0.004915412 -0.0012045504
0.0015796466 -0.004674416 -0.00071967056 0.0031285991 -0.0021775034 -0.0038822622 0.0048361234 -0.0021578246
0.0031952038 -0.004672901 -0.00067966507 -0.00017283593 0.00022118236 -0.0036110454 0.004187408 -0.00041798936
-0.00064225413 -0.0009423556 0.0004201537 -0.0003097022 0.00026433353 0.0010402143 -0.00021331632 0.00039887524
-0.0014995767 -0.0038527343 -0.0001812026 0.000257847 0.0029174997 -0.0011528323 3.9470608e-05 -0.0009920092
0.004002332 -0.010354767 0.0035801327 -0.0008594372 0.006891149 -0.0020271556 -0.001228489 0.003829644
0.0012584593 -0.0012210435 0.0001072787 -0.0035200347 0.00011358158 0.001607003 0.0019200275 -0.00059369026
-0.0007305092 0.00094305334 -0.0045964452 0.014287484 -0.0081782425 0.0028359697 -0.008400548 0.005868671
-0.0026545653 -0.0024506284 0.0047429237 -0.0012316586 0.005897861 -0.008429702 0.0021890132 -0.0056204856
0.0043686875 0.0011526012 6.750174e-05 -0.001803341 0.002349989 0.00064960105 -0.0008413573 0.0011145021
-0.0001620262 0.0018395925 0.0006986997 0.0014922925 -0.00027404935 0.0011006903 -0.013273553 0.0044377344
-0.0011900556 0.0076233097 -0.003352998 0.0020562203 -0.0038656727 0.0032740857 -0.005090145 0.013134872
-0.009448833 0.0035612073 -0.010382308 0.006175146 0.00038833922 0.000894676 -0.0020611314 -0.0030356129
0.0021858837 0.0015796957 0.0032171695 -0.0049005384 0.0011746956 0.00090703374 0.00012046036 -0.0010459387
-0.005129269 0.009094234 -0.004257372 0.0025040961 -0.0055340095 0.004431734 -0.00042656623 -0.0008219023
0.0027880212 0.000101099235 0.0039354684 -0.006840704 -0.00012303008 -0.0050605056 0.0046972707 -0.0006022395
0.0025091595 -0.002607199 0.0008348667 -0.00057091756 0.004795413 -0.001962791 -0.0005714063 -0.0010590503
0.0019525065 -0.0001950826 -0.0036041373 0.005131008 -0.00820681 0.008019034 -0.00428366 0.008459063
-0.0045212363 4.452502e-05 -0.00089387037 0.0008328699 -0.0030478241 0.004118848 -0.0022643534 0.002886477
-0.0042093145 0.003159724 -8.650291e-05 0.0035226988 -0.0019059143 0.0028055487 -0.0007091033 0.00041755498
-0.0028075306 -0.0010355534 -0.00028060234 0.0015604931 -0.0013490334 0.00029578118 0.006651546 -0.00791394
0.0018778747 -0.0055948095 0.0070037516 -0.0010345096 0.00031102568 0.00031189263 -0.0015473452 -0.00085076515
00000000: f5e1 9dbb e6f1 1d3b 73f2 033a cb2e aa3a
00000010: 1106 813b f8e3 2abb 7e79 77ba 1f05 54bb
00000020: 6040 3e3b d345 993a 6708 bc3b 8b06 24bc
00000030: 1d0d a7bb 81eb 4d3c 6696 1f3c be63 1cbb
00000040: 9976 f6ba 6936 95bb ad80 54bb c568 5e3b
00000050: bfdc 3fbb 80d2 45bb 859a 61bb 393b 863b
00000060: 15d5 303b c070 313a 5907 f3b9 d928 933b
00000070: 033e a6ba 4e20 17bb def8 2bbb b303 00bb
00000080: 3850 8f3b eb53 38b8 19af 2c3b d074 a4bb
00000090: f20b 0b3a 6b7c 94bb d325 683b 22dd 89ba
000000a0: 9c6c ea3b dc93 1abc 9bc5 b5ba 68a0 24bb
000000b0: bb24 153b 5e7d 443b 8316 a1ba 0a08 9bbb
000000c0: 570a 31bc 0409 d23c 8648 e0b9 0d10 043b
000000d0: 7b9e 53bc ee10 013b bc59 c738 4c15 aa3a
000000e0: 4990 3cbb 6fca 27bb d340 453b 3e69 95ba
000000f0: 261e 5d39 441a 213a 02e0 eb3a 8a28 59ba
00000100: c4d4 11bb cd01 bc3b 9c33 823a 8aff 04bb
00000110: d56c a6bb 2699 e23a 5718 1a3a 3257 373b
00000120: 2a3d 5e3a c591 25b9 8b50 c93a ad8f ab3a
00000130: 1f54 44bb 4c8c f83a 2ae4 8b39 f73e eb3a
00000140: 51fe 45bb 0651 8ab8 6a10 c13b 835a 13bb
00000150: 6f19 593b 884c 4fbb 7711 a13b 01e2 9dba
00000160: 250c cf3a d82b 99bb 46a8 3cba 2f09 4d3b
00000170: 72b4 0ebb 8d6d 7ebb 5878 9e3b 4a6a 0dbb
00000180: a066 513b 221f 99bb 8d2b 32ba 4b3b 35b9
00000190: 30ed 6739 4aa7 6cbb 8636 893b 9525 dbb9
000001a0: f25c 28ba 6a08 77ba 1348 dc39 875f a2b9
000001b0: 3f96 8a39 cd57 883a aaad 5fb9 2120 d139
000001c0: 728d c4ba 287e 7cbb 3401 3eb9 a32f 8739
000001d0: 8633 3f3b a21a 97ba 3e8d 2538 4e06 82ba
000001e0: ff25 833b 0aa7 29bc a9a0 6a3b db4b 61ba
000001f0: 26cf e13b 07da 04bb 4005 a1ba c4fa 7a3b
00000200: e3f2 a43a 6c0b a0ba d0fa e038 62b0 66bb
00000210: a532 ee38 13a2 d23a 6fa9 fb3a e1a1 1bba
00000220: a47f 3fba 3d37 773a c79d 96bb 0d16 6a3c
00000230: 09fe 05bc addb 393b 74a2 09bc fb4d c03b
00000240: 37f8 2dbb b99a 20bb 876a 9b3b 9b6f a1ba
00000250: d842 c13b bc1c 0abc 8c75 0f3b 0d2c b8bb
00000260: 3527 8f3b e112 973a b98f 8d38 155e ecba
00000270: 4602 1a3b fd49 2a3a 888e 5cba 7c14 923a
00000280: 94e5 29b9 7b1e f13a f128 373a 0799 c33a
00000290: 48ae 8fb9 0a45 903a 5179 59bc 6a6a 913b
000002a0: a4fb 9bba f5cc f93b f9bd 5bbb a7c1 063b
000002b0: 3a57 7dbb 0b92 563b 3bcb a6bb a533 573c
000002c0: 47cf 1abc 2563 693b 8e1a 2abc e158 ca3b
000002d0: 029a cb39 b188 6a3a 0c14 07bb 22f1 46bb
000002e0: 0b41 0f3b cb0d cf3a 26d7 523b b294 a0bb
000002f0: 3ef8 993a 01c6 6d3a aa9f fc38 e117 89ba
00000300: 6d13 a8bb fbff 143c 6d81 8bbb c31b 243b
00000310: a356 b5bb 1438 913b c0a4 dfb9 ee74 57ba
00000320: 3cb7 363b 3d05 d438 1af5 803b fc27 e0bb
00000330: a301 01b9 99d2 a5bb 90eb 993b 9cdf 1dba
00000340: b670 243b 8add 2abb f5da 5a3a a1a9 15ba
00000350: d722 9d3b 2ba2 00bb 6dca 15ba d5cf 8aba
00000360: 3feb ff3a 168f 4cb9 6433 6cbb 0422 a83b
00000370: db75 06bc 4462 033c f25d 8cbb e297 0a3c
00000380: e126 94bb 60c0 3a38 a052 6aba f454 5a3a
00000390: 01be 47bb 67f7 863b 8c65 14bb 0c2b 3d3b
000003a0: 4aee 89bb 5f13 4f3b e568 b5b8 14dd 663b
000003b0: dfcf f9ba 4cdd 373b 1ee3 39ba 48eb da39
000003c0: 8cfe 37bb 68bb 87ba cf1d 93b9 7689 cc3a
000003d0: 0dd2 b0ba 1413 9b39 36f5 d93b 78a9 01bc
000003e0: 0523 f63a aa54 b7bb ba7f e53b 6298 87ba
000003f0: 2911 a339 8585 a339 4ad0 caba e205 5fba

conv5.bias f4 [64]
0.004543714 -0.007556486 -0.022157801 0.0058309883 -0.0041635768 0.01093452 -0.0011489291 -0.0013237682
0.0032042994 -0.008275251 0.0020514387 -0.0017822107 -0.0016677773 0.0006235455 -0.01863462 0.0051681264
-0.0011589836 0.002527282 0.00042312485 -0.0023576233 -0.016019575 0.0073980573 -0.0034000548 -0.00074642315
0.0076910434 -0.0107191205 0.07846379 -0.011048087 0.009850627 0.00787722 0.0035557938 0.092816494
-0.0022044964 0.005244204 0.004056726 0.0056264945 0.0030908852 -0.0025301774 -0.046899676 0.0044512255
-0.0014149346 -0.012103788 -0.006736452 0.011707559 0.0030663286 0.00114389 -0.0020717187 -0.005619575
-0.10726059 -0.009904448 0.028875042 -0.0060599176 0.0027153157 0.0014052219 -0.0016795857 0.004628045
-0.0011640231 -0.021306446 -0.0010148437 0.0023782954 -0.007608755 0.04837853 -0.0035173048 0.01182344
00000000: 70e3 943b 669c f7bb 4784 b5bc e011 bf3b
00000010: 9d6e 88bb b326 333c aa97 96ba 4a82 adba
00000020: 39ff 513b eb94 07bc 6e71 063b 1199 e9ba
00000030: 5299 daba 6e75 233a a1a7 98bc 6359 a93b
00000040: 09e9 97ba c2a0 253b dbd6 dd39 5b82 1abb
00000050: 7c3b 83bc 676b f23b 74d3 5ebb 9cab 43ba
00000060: 2605 fc3b 409f 2fbc a0b1 a03d 0903 35bc
00000070: 8664 213c 750f 013c 5208 693b 9316 be3d
00000080: 5079 10bb 92d7 ab3b 49ee 843b 755e b83b
00000090: 7390 4a3b 55d1 25bb e019 40bd 96db 913b
000000a0: 5475 b9ba f74e 46bc 75bd dcbb 10d1 3f3c
000000b0: 75f4 483b 94ee 953a acc5 07bb 6924 b8bb
000000c0: 71ab dbbd 4446 22bc 5a8b ec3c 4692 c6bb
000000d0: 70f3 313b 6c2f b83a 8b25 dcba dba6 973b
000000e0: 2292 98ba db8a aebc 8104 85ba 2ddd 1b3b
000000f0: dd52 f9bb 9128 463d 9582 66bb 1ab7 413c
