Verification_Models/encoder/single_encode_uv.onnx (onnx, 956404 bytes, 13 tensors)

conv1.weight f4 [64, 3, 3, 3]
0	0x3ac26b7e	0.001483306
1	0xbaf42ea7	-0.0018629626
2	0x3c2a4b74	0.010393966
3	0x3c3b6e52	0.011439877
4	0x3c329ab6	0.010901144
5	0x3d00b229	0.031419907
6	0x3c8590d6	0.016304415
7	0x3c6382bb	0.013886149
8	0x3c9d90a8	0.019234017
9	0x3c0c1238	0.008549266
10	0xbcbf8fe3	-0.02338404
11	0xbc1bcac6	-0.009508794
12	0x3be18197	0.0068819034
13	0xbd1d309f	-0.038376447
14	0x3d0fb276	0.035082303
15	0x3cfb7320	0.030694544
16	0x3ca5ae76	0.020224791
17	0xbd0ceab7	-0.03440353
18	0xbd3c205d	-0.0459293
19	0x3d9df5b0	0.07712877
20	0xbc2f1c02	-0.01068783
21	0x3d0662a4	0.032808915
22	0xbd1c3dee	-0.038145
23	0x3d7f241c	0.062290296
24	0x3d00f806	0.031486534
25	0x3d4bb3be	0.049731962
26	0x3d03a299	0.032137487
27	0x3b8f56e0	0.00437437
28	0x3d811c7e	0.063042626
29	0xbd61005f	-0.054931995
30	0xbb1189e0	-0.0022207424
31	0x3cc6b74a	0.02425732
32	0xbd0a5c5c	-0.033779487
33	0xbae38287	-0.0017357626
34	0x3d2330fb	0.039841633
35	0xbd2286da	-0.039679386
36	0x3d20e949	0.039284978
37	0x3c80a9f9	0.01570605
38	0x3cef4d55	0.02921168
39	0xbcf2102c	-0.029548727
40	0xbd3948ba	-0.045235373
41	0x3d21699b	0.039407354
42	0xbd13bc9f	-0.036068555
43	0xbcfc19c9	-0.030774014
44	0xbd40b9b3	-0.047052097
45	0x3c7afba8	0.015318789
46	0x3db1da1a	0.08684178
47	0xbd0497ad	-0.03237121
48	0xbc84c77b	-0.016208401
49	0xbd10efec	-0.035385057
50	0xbce3b448	-0.027795926
51	0x3a58c550	0.0008269148
52	0x3c360bea	0.011111239
53	0xbcd1ea26	-0.025624346
54	0x3b9de7ea	0.004818906
55	0x3c0040ba	0.007827932
56	0xbb69db7c	-0.0035683801
57	0x3c09f70e	0.008420719
58	0x3beec6fe	0.0072869053
59	0xbc3dbf57	-0.0115812635
60	0xbba17e46	-0.004928383
61	0xbb83ba42	-0.0040200064
62	0xba331903	-0.0006832035
63	0x3d423c34	0.047420695
64	0x3d71fd72	0.059079595
65	0xbdfc6ba3	-0.123252176
66	0x3dad10e7	0.084504895
67	0x3d9e91cc	0.07742652
68	0xbda327a4	-0.07966545
69	0x3dad841a	0.08472462
70	0x3c425a15	0.011862298
71	0xbe29e0ec	-0.16589707
72	0x3c8f5acc	0.01749935
73	0xbca4c523	-0.020113533
74	0xbd646dff	-0.055768963
75	0x3d75079f	0.05982172
76	0xbd028589	-0.03186563
77	0xbd4743e3	-0.048648726
78	0x3daf4ff4	0.08560172
79	0x3ce1a54a	0.027544636
80	0xbd3553a6	-0.044269226
81	0x3deb257f	0.11481761
82	0xbc60b117	-0.0137140965
83	0xbdd534bf	-0.10410451
84	0x3dd3e032	0.10345496
85	0xbd01baa4	-0.031672135
86	0xbe098d68	-0.13432848
87	0x3e0b4410	0.13600183
88	0x3a7e1f23	0.0009693971
89	0xbd94cdbf	-0.072658055
90	0x3b5aabdd	0.0033366599
91	0xbc17112d	-0.009220404
92	0x3c971412	0.018442187
93	0xbcc9180b	-0.024547597
94	0xbc01aac6	-0.007914251
95	0x3ca3f8d4	0.020016111
96	0x3b969180	0.0045949817
97	0xbb89235b	-0.004185123
98	0xbb3085b6	-0.0026935167
99	0xbd065255	-0.03279336
100	0x3cdd148f	0.026987342
101	0xbac1ce28	-0.0014786171
102	0xbaa531bc	-0.0012603323
103	0xbc8b8c5d	-0.017034704
104	0x3d352c1b	0.044231515
105	0x3c00dadb	0.007864679
106	0xbcc10137	-0.02356015
107	0x3b3ae2bc	0.0028516492
108	0x3cb2daff	0.021832941
109	0x3bdd9045	0.006761583
110	0x3c521410	0.012822166
111	0xbc0282c9	-0.007965752
112	0xbc354b51	-0.01106532
113	0xbc804073	-0.015655732
114	0xbc5fa03a	-0.013649041
115	0xbc3a6646	-0.011376923
116	0xbca82263	-0.02052421
117	0xbbdc96d0	-0.0067318454
118	0x3c80407e	0.015655752
119	0x3cdfa086	0.027298223
120	0xbd842005	-0.0645142
121	0xbcca7198	-0.024712369
122	0xbd1da1f4	-0.03848453
123	0x3b47db4b	0.00304957
124	0xbca89af0	-0.020581692
125	0x3cf60f1a	0.030036498
126	0xbd256096	-0.040375315
127	0xbb6874df	-0.0035470051
128	0xbdcd017f	-0.10010051
129	0x3c2c748d	0.010525835
130	0x3b2ed961	0.002667986
131	0x3ccb9881	0.024852993
132	0x3b220a77	0.0024725476
133	0x3cd94bb4	0.026525356
134	0xbc81e378	-0.015855536
135	0x3c25bc83	0.0101157455
136	0xbc3892cd	-0.011265469
137	0x3bcc08f8	0.006226655
138	0xbc2d420c	-0.010574829
139	0x3b294b40	0.0025832206
140	0x3bf93cac	0.0076061096
141	0x3a890b79	0.001045569
142	0x3c56e8cb	0.013117026
143	0xbc594015	-0.013259907
144	0x3dc501f8	0.09619516
145	0xbe04af48	-0.1295749
146	0x3e7dbc6d	0.2477891
147	0xbe12faaf	-0.1435344
148	0xbe494e34	-0.19658738
149	0xbd9663fa	-0.07343288
150	0x3dc609d5	0.09669844
151	0xbdbade8f	-0.09124481
152	0x3e48c0b4	0.1960476
153	0xbafee1ac	-0.0019445918
154	0x3cb399d6	0.02192394
155	0x3d65a7a0	0.056068063
156	0xbc959546	-0.018259656
157	0xbd7a418a	-0.06109766
158	0xbccb26a3	-0.024798697
159	0x3cc3bb22	0.023892943
160	0xbdf8c1ef	-0.12146365
161	0x3df88c13	0.12136092
162	0xbb7c68cb	-0.003851461
163	0x3b2e57cf	0.002660263
164	0x3ae9547c	0.0017801668
165	0x3b540d8a	0.0032356703
166	0x3a12340a	0.00055772124
167	0xba176d6d	-0.00057764986
168	0x3bc6f43f	0.006071597
169	0xba0a842d	-0.0005283978
170	0xbb1c394e	-0.0023837867
171	0xbc36e3b8	-0.011162691
172	0x3c8e28e0	0.017353475
173	0xbb2a223e	-0.0025960351
174	0x3b5b2b38	0.0033442508
175	0xbc698b57	-0.014254413
176	0x39eabe29	0.00044773638
177	0xbab24505	-0.0013600892
178	0x3c0e2e8e	0.008678092
179	0xbc738039	-0.014862114
180	0x3bb07484	0.0053849835
181	0x3bbc9f5d	0.0057563023
182	0x3c285e70	0.010276422
183	0x3ae6b039	0.0017600126
184	0xb8f7761c	-0.000117998774
185	0x3b6aea5a	0.003584525
186	0xbb410ec6	-0.0029458269
187	0x3c3776fc	0.011197802
188	0xbb6db269	-0.003626967
189	0x3bc9b979	0.0061561433
190	0xba601e3c	-0.0008549427
191	0x3c106ea3	0.00881544
192	0xbc2b461a	-0.010453725
193	0xbc01e1f8	-0.00792741
194	0x3b153377	0.002276627
195	0xbb6ef665	-0.003646278
196	0xbb44dcc2	-0.0030038808
197	0x3c0fc8bc	0.008775886
198	0x3d3edc12	0.046596594
199	0x3d282787	0.04105332
200	0x3de92010	0.113830686
201	0xbce99c4d	-0.028516913
202	0xbd191ed9	-0.037382934
203	0xbd2a045e	-0.04150807
204	0x3c8fc357	0.0175492
205	0xbd1598de	-0.03652274
206	0xbd3e9913	-0.0465327
207	0x3da95e53	0.08269944
208	0x3c50872c	0.01272754
209	0x3da66914	0.08125511
210	0xbd17a5b5	-0.037023265
211	0xbd1ea8a2	-0.03873504
212	0xbc899444	-0.016794331
213	0xbb0dc502	-0.0021632318
214	0xbc38e441	-0.011284889
215	0xbd0a6d21	-0.03379548
216	0x3d15ead4	0.036600903
217	0x3d263231	0.04057521
218	0x3d60448e	0.05475288
219	0xbd911542	-0.07084133
220	0xbdd38c26	-0.103294656
221	0xbdad7389	-0.08469302
222	0x3ceaf597	0.02868156
223	0x3d0274f1	0.031849805
224	0x3d8b1f19	0.06793041
225	0xbc3b33aa	-0.011425892
226	0xbcb7be80	-0.022429705
227	0x3a89f7ec	0.0010526157
228	0x3b9c6d45	0.004773768
229	0x3d483829	0.048881683
230	0xbcab3423	-0.020898884
231	0xbc7597cc	-0.0149898045
232	0xbc90f0c5	-0.017692933
233	0x3cd35cd2	0.025801096
234	0x3d16fa25	0.03685965
235	0xbbda595e	-0.0066634854
236	0x3c2a9acf	0.010412886
237	0xbc38e719	-0.011285567
238	0xbd0fdeff	-0.035124775
239	0x3a9f16a9	0.001213749
240	0xbc93d12e	-0.01804408
241	0x3d3fa3a5	0.046786923
242	0xbcba7cf1	-0.022764655
243	0xbc169ce6	-0.009192681
244	0x3c9f436c	0.019441329
245	0xbc000092	-0.007812636
246	0x3b58a370	0.00330564
247	0xba6cc4e5	-0.0009032025
248	0x3a10ebbb	0.00055282906
249	0x3c2043c7	0.009781784
250	0xbc8bea42	-0.017079476
251	0x3c02f28f	0.007992401
252	0xbd0cb448	-0.034351617
253	0x3de23fd0	0.110473275
254	0x3d06746b	0.03282587
255	0x3d969cca	0.07354124

conv1.bias f4 [64]
0	0xbd9a121b	-0.075229846
1	0xbcfae1a0	-0.030625165
2	0x3b6f2ec1	0.0036496373
3	0xbaa25f7e	-0.0012388078
4	0xbd4dfd8b	-0.050290626
5	0x3b8993e6	0.004198539
6	0xbdc5e257	-0.096623115
7	0xbd4f791c	-0.05065261
8	0xbbde7af5	-0.00678956
9	0x3c8fd781	0.017558815
10	0x39714904	0.00023010751
11	0xbca47d47	-0.020079268
12	0xbc9e1ef1	-0.019301863
13	0x3b74d618	0.0037359055
14	0xbc41d92a	-0.011831561
15	0xbd64a609	-0.055822406
16	0xbd2f5037	-0.04280111
17	0xbd2d4b34	-0.042308047
18	0xbd80fe7d	-0.0629854
19	0xbd211e07	-0.039335277
20	0xbce1266f	-0.027484147
21	0xb9016902	-0.00012341517
22	0xbd872591	-0.06598962
23	0xbd2b1638	-0.041769236
24	0xbd36a1a4	-0.044587746
25	0xbd56aa27	-0.052408364
26	0x3c061b1c	0.008185174
27	0xbc9f61a7	-0.019455744
28	0xbd87b5eb	-0.06626495
29	0xbd70622a	-0.058687367
30	0xbd618814	-0.055061415
31	0xbd52637a	-0.0513644
32	0xbd49b3cc	-0.049243733
33	0x3c639f1f	0.013892918
34	0xbd7e00a3	-0.062012326
35	0x3cf6a004	0.030105598
36	0xbd780621	-0.06055272
37	0x3a3f5dd4	0.0007300053
38	0xbd6ffdf6	-0.058591805
39	0xbd4f3a83	-0.05059291
40	0x3ba2798c	0.004958337
41	0xbd97a2a8	-0.07404071
42	0xba98e261	-0.0011664146
43	0x3bf22aa2	0.007390336
44	0xbdda51d3	-0.10660138
45	0x3659ca44	3.2453254e-06
46	0xba89f76c	-0.0010526008
47	0xbd00a6c4	-0.03140904
48	0xbc6276b3	-0.013822245
49	0x3bd910f7	0.006624337
50	0xbd1fed44	-0.039044634
51	0x3c03f5b5	0.008054187
52	0x3e64acff	0.22331618
53	0xbd6bbf9b	-0.057555776
54	0x3ba96309	0.0051692766
55	0xbcc0dff7	-0.023544295
56	0xbc8de6c9	-0.017321961
57	0xbd211483	-0.039326202
58	0xbd215b3b	-0.039393645
59	0xbd89348c	-0.06699476
60	0xbc687c83	-0.014189842
61	0x3bab7b02	0.0052331695
62	0xbd24aa81	-0.040201668
63	0xbd62a5e1	-0.055333976

act1.conv.weight f4 [64, 64, 3, 3]
0	0xbe416e48	-0.18889725
1	0xbe8081bb	-0.25098976
2	0xbe6d1406	-0.2315217
3	0xbe843607	-0.2582247
4	0xbe8257bc	-0.2545756
5	0xbe484767	-0.19558488
6	0xbe82cb96	-0.2554595
7	0xbe18eba5	-0.14933641
8	0xbe49aed2	-0.19695595
9	0x3dd5c046	0.10437064
10	0x3c0c7689	0.008573183
11	0xbe05d3d1	-0.13069083
12	0xbd9c8512	-0.07642569
13	0x3d4126f7	0.0471563
14	0xbd6339db	-0.055475097
15	0xbcb66b98	-0.022268102
16	0xbd3199eb	-0.04335968
17	0xbe2d49b5	-0.16922648
18	0xbd586b04	-0.052836433
19	0xbc99404d	-0.018707419
20	0xbd6cbdf9	-0.05779836
21	0xbcd8d8f9	-0.026470648
22	0x3d805622	0.062664285
23	0x3d28b008	0.0411835
24	0xbde35f35	-0.11102144
25	0x3cd4e086	0.025985967
26	0xbcb4b5df	-0.02205938
27	0x3d76d2fc	0.060259804
28	0x3dc95a4f	0.09831678
29	0x3da24172	0.07922639
30	0xbd4a272d	-0.049353767
31	0xbd9d9b00	-0.076955795
32	0x3c49cb33	0.012316513
33	0x3d813cad	0.06310401
34	0x3d416194	0.0472122
35	0xbb9de75a	-0.004818839
36	0x3da29030	0.07937658
37	0x3e28f87f	0.16501044
38	0xbc47f278	-0.012203805
39	0x3de9fcb5	0.11425153
40	0xbd0371a6	-0.032090805
41	0xbdd92765	-0.10603217
42	0x3df060af	0.11737191
43	0x3e101605	0.140709
44	0xbddaad49	-0.10677583
45	0x3b9bd257	0.004755299
46	0xbdfe728d	-0.124241926
47	0x3b22a290	0.0024816133
48	0xbbf3caf5	-0.007439966
49	0xbc65d1d0	-0.014027074
50	0xbe07ea71	-0.13273026
51	0x3e1aeb3a	0.15128794
52	0xbc8ef95a	-0.017452884
53	0x3db56702	0.08857538
54	0xbc366bc7	-0.011134095
55	0x3d9a34a7	0.07529574
56	0x3e3e68cc	0.18594664
57	0xbde81692	-0.1133243
58	0x3e3f837a	0.18702498
59	0x3e984da5	0.29746738
60	0x3b1ee612	0.002424602
61	0x3e386d29	0.18010391
62	0x3e3a678a	0.1820356
63	0x3cc07cad	0.02349695
64	0xbd3e44f5	-0.04645248
65	0xbd8c8112	-0.06860556
66	0xbcae15ea	-0.021250684
67	0x3cb4acf3	0.022055125
68	0xbda9c7c3	-0.08290055
69	0xbd12b1d6	-0.03581413
70	0x3d9b7fe0	0.075927496
71	0x3dc74692	0.09730257
72	0x38e9047c	0.00011111141
73	0x3cff7f46	0.031188618
74	0xbd5b85e8	-0.0535945
75	0xbd843e97	-0.064572506
76	0xbde482c7	-0.11157756
77	0xbd81e795	-0.06342999
78	0x3dad4b3e	0.08461617
79	0xbc643378	-0.013928287
80	0xbdadb0e5	-0.084810056
81	0x3bd101bb	0.00637838
82	0x3d98e1b7	0.07464927
83	0x3dbc2114	0.09185997
84	0xbc986997	-0.018605037
85	0xbd07afd0	-0.033126652
86	0xbd1aa6f8	-0.03775689
87	0x3d895848	0.067062914
88	0x3dcc162a	0.09965165
89	0x3b901399	0.0043968675
90	0xbd5e3a3c	-0.054254755
91	0x3c6b505b	0.01436242
92	0xbd04e2ad	-0.032442737
93	0x38bf35a1	9.117579e-05
94	0xbcf2029c	-0.02954226
95	0xbc1c3f84	-0.009536628
96	0x3b4bcaf9	0.0031096323
97	0xbce0c31d	-0.027436787
98	0xbe052fe6	-0.13006553
99	0xbcede4e9	-0.029039817
100	0xbdc6a744	-0.09699872
101	0x3c4e08fa	0.012575382
102	0xbcb8dac7	-0.022565259
103	0xbe096faa	-0.13421503
104	0xbc451136	-0.012028029
105	0xbc9bcb0a	-0.019017715
106	0xbbe5ff88	-0.007018987
107	0xbdc169e7	-0.094440274
108	0x3d0935a0	0.033498406
109	0x3d80d881	0.06291295
110	0x3d99b80f	0.075058095
111	0xbe06d6d5	-0.1316789
112	0x3d296de6	0.041364573
113	0x3d2d7888	0.042351276
114	0xbe690c22	-0.22758535
115	0xbdae4762	-0.08509709
116	0xbd98a439	-0.07453198
117	0x3cd54735	0.02603493
118	0xbd8dd12b	-0.06924661
119	0x3dd47476	0.10373776
120	0x3e3e14a8	0.18562567
121	0xbda0d9ff	-0.078540795
122	0x3e147a15	0.14499696
123	0xbce77597	-0.028254313
124	0xbd7b8ff5	-0.061416585
125	0x3b9b85e3	0.004746185
126	0xbe86970b	-0.26287112
127	0xbe95d39e	-0.29263014
128	0xbe322a15	-0.17398866
129	0xbeb21479	-0.34781244
130	0xbed0fe29	-0.4081891
131	0xbe300ca0	-0.17192316
132	0xbe9911e6	-0.29896468
133	0xbe2b3b89	-0.1672193
134	0xbdcba9bf	-0.09944486
135	0x3dece05f	0.11566233
136	0x3d1c48f8	0.038155526
137	0xbd826ac3	-0.063680194
138	0x3e7bcca9	0.2458979
139	0x3d3b0240	0.045656443
140	0x3d2aa6d7	0.041663017
141	0x3e8551a8	0.2603886
142	0x3d631b72	0.055446096
143	0x3caf47c2	0.021396521
144	0x3d697639	0.05699751
145	0xbce29baf	-0.027662126
146	0xbdbcef4c	-0.0922533
147	0xbcaa740d	-0.02080729
148	0x3d37a5a4	0.0448357
149	0xbd9fd280	-0.078038216
150	0xbe35c482	-0.17750743
151	0xbe9f2580	-0.31083298
152	0xbe2e4435	-0.17018206
153	0x3dae12d3	0.08499684
154	0xbca0eb60	-0.019643486
155	0x3daf7e8c	0.08569059
156	0xbde1179c	-0.10990831
157	0xbe218966	-0.1577507
158	0xbd924b79	-0.071433015
159	0x3c82c4b8	0.015962943
160	0xbd25f420	-0.04051602
161	0x3dd476c4	0.10374215
162	0x3db3e871	0.08784569
163	0x3dc85027	0.09780913
164	0x3dd1ed8e	0.10250388
165	0x3da32cc5	0.079675235
166	0x3e0b3347	0.1359378
167	0x3e5a68c7	0.21329032
168	0x3e521d6d	0.20519038
169	0x3e2b27de	0.16714427
170	0x3e799801	0.24374391
171	0x3e279540	0.16365528
172	0x3da3d3d0	0.079993844
173	0x3e41e0af	0.18933366
174	0x3cd0f809	0.025508897
175	0xbdd1b793	-0.10240092
176	0x3da2fab3	0.07957973
177	0x3dcee179	0.10101599
178	0xbcdfe222	-0.027329508
179	0x3d6acba8	0.057323128
180	0xbe0ac08e	-0.13550016
181	0xbdbf6ba4	-0.09346703
182	0xbe1fbb6b	-0.15598838
183	0xbe013bfd	-0.1262054
184	0xbdaaff92	-0.083495274
185	0x3c8757bb	0.016521325
186	0xbda85f09	-0.082212515
187	0x3ce6927c	0.028146021
188	0x3d59ccbb	0.05317376
189	0xbd57f628	-0.052724987
190	0xbdcbb70f	-0.09947025
191	0xbc957459	-0.018243955
192	0x3dbbb852	0.09166016
193	0x3bf2c9a0	0.0074092895
194	0x3cc0b79f	0.023525057
195	0x3dd86bfe	0.10567473
196	0x3d1ca6bf	0.03824496
197	0x3d99a669	0.07502443
198	0x3e2e51cb	0.17023389
199	0x3e13c57a	0.144308
200	0xbcc11759	-0.023570703
201	0x3e195219	0.14972724
202	0x3d75f4b4	0.06004782
203	0xbd6179d2	-0.055047818
204	0x3e99c93e	0.30036348
205	0x3da3435a	0.07971831
206	0x3e795b06	0.24351129
207	0xbd7fc1de	-0.062440746
208	0x3dcf5b3d	0.10124824
209	0x3d21e251	0.039522473
210	0x3e02cf78	0.12774456
211	0x3ddf5415	0.10904709
212	0x3e3b1377	0.18269144
213	0xbd0418e5	-0.032250304
214	0xbd0680dd	-0.032837737
215	0x3d8e7295	0.069554485
216	0x3d89c8b2	0.06727733
217	0xbce37023	-0.027763432
218	0xbcf23263	-0.029565042
219	0x3d1c895b	0.03821693
220	0xbe1ae9ed	-0.15128298
221	0xbcd73b9d	-0.026273543
222	0x3c99844c	0.018739842
223	0xbc171fdf	-0.009223907
224	0x3ce0c9e3	0.027440017
225	0x3e8b313b	0.27185997
226	0x3d624458	0.05524096
227	0x3a118c7a	0.00055522437
228	0xbbeeca16	-0.007287274
229	0xbdd9040c	-0.10596475
230	0x388eb4f7	6.804795e-05
231	0x3d98dc8d	0.07463942
232	0xbd274dc9	-0.040845666
233	0x3de4617e	0.11151408
234	0xbba9e75d	-0.0051850514
235	0x3ca3311b	0.019920876
236	0xbd7cf283	-0.061754715
237	0xbdccb987	-0.09996324
238	0x3d47a1b3	0.048738193
239	0x3d295d27	0.041348603
240	0x3d23e252	0.040010758
241	0x3dc51d34	0.09624711
242	0xbd0f4d18	-0.03498563
243	0xbe14956f	-0.1451013
244	0xbd24ffc4	-0.04028298
245	0x3dba9ba6	0.09111719
246	0xbd531e3f	-0.051542517
247	0x3cfbeba4	0.03075201
248	0x3c140e47	0.009036607
249	0xbd8ff414	-0.07028976
250	0x3cd9f1f5	0.026604632
251	0xbccbf005	-0.024894724
252	0x3cc82dfd	0.024435991
253	0x3eaef218	0.34169078
254	0x3e9bf17a	0.3045767
255	0x3e0305d5	0.12795193

conv2.weight f4 [64, 64, 3, 3]
0	0x3d9c4aba	0.076314405
1	0xbda6d5bb	-0.081462346
2	0x3e00dfeb	0.12585418
3	0x3d56a496	0.052403055
4	0xbd1d6241	-0.03842378
5	0xbc3424d3	-0.010995108
6	0x3d620643	0.055181753
7	0x3c8daf46	0.017295491
8	0x3d1ccc80	0.038280964
9	0xbce309f0	-0.0277147
10	0x3ce703eb	0.02820011
11	0x3d8392c4	0.06424478
12	0xbd24759c	-0.040151224
13	0x3d3f5b95	0.0467182
14	0xbd850b73	-0.064963244
15	0x3d2665d2	0.040624447
16	0x3ccd0455	0.02502648
17	0xbc29a520	-0.01035431
18	0xbd1cbdf7	-0.038267102
19	0x3de57970	0.11204803
20	0xbd8364f7	-0.06415742
21	0xbd65e1ae	-0.056123428
22	0xbc293cfe	-0.010329483
23	0xbd9a1102	-0.07522775
24	0x3d98b789	0.074568816
25	0x3b960823	0.0045786067
26	0x3d452850	0.048134148
27	0x3ca98b42	0.020696286
28	0x3cdb523f	0.026772616
29	0xbcfae1c4	-0.030625232
30	0xbd3f8971	-0.046761934
31	0x3cfc1439	0.030771362
32	0xbc1522cb	-0.009102534
33	0x3d805c8c	0.06267652
34	0x3d6591ca	0.05604724
35	0xbd94744c	-0.07248744
36	0xbe15829b	-0.14600603
37	0x3dbc5c98	0.09197348
38	0xbd4feaa6	-0.050760888
39	0xbdadfb61	-0.08495212
40	0x3db607b8	0.08888191
41	0xbe0852a4	-0.13312775
42	0x3b89224f	0.004184998
43	0x3d8639e8	0.065540135
44	0xbe39459e	-0.18092963
45	0x3d003037	0.03129598
46	0x3e136e64	0.1439758
47	0x3dee5bc4	0.11638597
48	0xbcafbe75	-0.021453122
49	0xbdafd1b5	-0.0858492
50	0xbd240be2	-0.040050395
51	0xbd9dbdd3	-0.07702222
52	0xbe12339e	-0.14277503
53	0xbe1fded4	-0.15612346
54	0xbca4d102	-0.020119194
55	0xbc8f2778	-0.017474875
56	0xbe20667f	-0.15664099
57	0x3e266fcb	0.16253583
58	0x3dedfe7a	0.11620803
59	0xbd2e7adf	-0.042597648
60	0xbcbfdc17	-0.023420377
61	0xbd0fef54	-0.03514035
62	0xbe796552	-0.24355057
63	0x3da1126a	0.0786484
64	0x3db3bcf5	0.08776275
65	0x3e07bf91	0.1325667
66	0x3d026a89	0.03183988
67	0x3daf3d35	0.08556596
68	0x3deb0a4b	0.114765726
69	0x3e39af18	0.18133199
70	0x3d81f036	0.06344645
71	0x3d6bfd3c	0.05761455
72	0x3c53a794	0.012918372
73	0x3ac58871	0.001507057
74	0x3b9f0be1	0.004853711
75	0x3d1c2fc7	0.0381315
76	0xbd66403c	-0.056213602
77	0xbde9fc9a	-0.11425133
78	0xbd4ba04e	-0.049713425
79	0xbd33e455	-0.043918926
80	0xbe0e6f72	-0.139097
81	0x3dbad915	0.09123436
82	0x3e374c65	0.17900236
83	0x3d89e19e	0.06732486
84	0x3d9d5e69	0.07684023
85	0x3dae836a	0.08521159
86	0xbdbb960c	-0.091594785
87	0xbb578d95	-0.0032890786
88	0xbd8fd6df	-0.07023405
89	0xbe924942	-0.28571516
90	0x3df5b153	0.119967125
91	0x3d9c28fa	0.07625003
92	0xbc4de68a	-0.012567172
93	0x3dd83d25	0.105585374
94	0xbcc46c04	-0.023977287
95	0xbde8e143	-0.1137109
96	0xbd2f4025	-0.042785782
97	0xbdab3fb7	-0.08361762
98	0xbe272847	-0.16323958
99	0xbad00888	-0.0015871683
100	0xbd1dafa9	-0.0384976
101	0x3a4af74d	0.0007742539
102	0x3d46cece	0.048537068
103	0x3d227ffa	0.03967283
104	0xbb94ebe2	-0.004544721
105	0x3d0e288d	0.03470664
106	0xbd249343	-0.040179502
107	0xbce0cd13	-0.027441537
108	0xbe53848b	-0.2065603
109	0xbe3dbb53	-0.1852849
110	0x3d41ac5f	0.047283527
111	0xbe73d2ac	-0.23810834
112	0xbd16bc87	-0.036800887
113	0x3e7f091f	0.24905823
114	0x3d230e63	0.039808642
115	0x3e2c3f56	0.16821036
116	0x3e7eab22	0.2486997
117	0x3cb150a0	0.02164489
118	0xbe511507	-0.20418178
119	0xbe4d2bd2	-0.20036247
120	0x3c7a3bc9	0.015273043
121	0xbd706f74	-0.05870004
122	0xbceb8c8b	-0.02875354
123	0xbc811bda	-0.015760351
124	0xbdf7d33c	-0.12100837
125	0xbc7f5358	-0.015583836
126	0x3da3cc14	0.07997909
127	0xbda63d42	-0.08117153
128	0xbc7788e5	-0.015108322
129	0xbcc45daf	-0.023970453
130	0xbddab90f	-0.106798284
131	0x3d74a907	0.05973151
132	0x3d7f74b8	0.06236717
133	0x3c3b3f6f	0.011428698
134	0x3c091064	0.008365724
135	0xbb8414da	-0.004030806
136	0x3d485a49	0.048914228
137	0xbdc962d4	-0.09833303
138	0x3cb08e34	0.021552183
139	0x3c024fd5	0.007953604
140	0xbe1b7da6	-0.1518465
141	0xbd9ff5ed	-0.078105785
142	0xbcaa8e02	-0.020819668
143	0x3d2c8fad	0.042129207
144	0x3d43f663	0.047842395
145	0x3ccf65db	0.025317123
146	0xbdaa3d36	-0.08312456
147	0x3d0505cb	0.032476228
148	0x3cfdd1b1	0.030983778
149	0xbe3ba441	-0.18324377
150	0x3d9d0f8b	0.0766898
151	0x3d855b99	0.065116115
152	0xbd712db6	-0.058881484
153	0xbcf43469	-0.029810147
154	0x3cc5df58	0.02415435
155	0xbdd6565a	-0.10465689
156	0x3d6687b5	0.056281764
157	0x3da5f041	0.081024654
158	0x3e47c27b	0.19507782
159	0xbe5e3c3c	-0.21702665
160	0xbc170864	-0.009218309
161	0x3d3b7871	0.04576916
162	0x3d3f876d	0.04676001
163	0x3dc069d2	0.093951836
164	0xbdaf0cde	-0.08547376
165	0xbcaf4679	-0.021395909
166	0xbbc95bde	-0.0061449846
167	0xbdac41ea	-0.084110096
168	0xbd741281	-0.05958796
169	0x3d1f2b72	0.038859792
170	0xbe1fede3	-0.1561809
171	0x3d18ffb0	0.037353218
172	0xbc3d60a1	-0.011558683
173	0xbd0949ce	-0.03351765
174	0x3d126a57	0.035745945
175	0x3de741da	0.11291857
176	0x39002d9b	0.0001222402
177	0x3d6b0790	0.05738026
178	0xbc8a025b	-0.016846826
179	0xbe480fbd	-0.19537254
180	0xbe521979	-0.2051753
181	0xbdf4e6a1	-0.119580515
182	0xbdd590ef	-0.104280345
183	0xbd4babd1	-0.049724404
184	0xbde10b2e	-0.109884605
185	0xbd52b218	-0.051439375
186	0xbd8e0146	-0.06933837
187	0xbd3273ac	-0.043567345
188	0x3ce63ad7	0.028104229
189	0x3c80358c	0.015650533
190	0x3e013a9b	0.12620012
191	0xbc858ff2	-0.01630399
192	0x3db81c4c	0.08989772
193	0x3cf91ed6	0.030410212
194	0xbdb0b3c5	-0.08628038
195	0x3d3f4fd6	0.046706997
196	0xbda3c6ba	-0.079968885
197	0xbe2c45a5	-0.16823442
198	0x3da88deb	0.08230194
199	0x3d4e5d57	0.050381985
200	0xbddf9512	-0.10917105
201	0xbc601d65	-0.013678883
202	0xbe2ff3ff	-0.17182921
203	0xbe334d97	-0.17510067
204	0xbd74d4f0	-0.059773386
205	0xbe554541	-0.208272
206	0xbdf6b153	-0.12045541
207	0xbce9aa4d	-0.028523589
208	0x3e13096e	0.14359066
209	0xbb831cb8	-0.0040012263
210	0x3d57ee87	0.05271771
211	0x3dca4ca5	0.098779
212	0xbddf35bc	-0.10898921
213	0x3da19179	0.07889075
214	0x3df74313	0.1207334
215	0xbd58d5a8	-0.052938133
216	0x3c20db72	0.009817945
217	0xbcc927e3	-0.024555152
218	0xbca54193	-0.02017287
219	0x3d6aab07	0.05729201
220	0x3c6bdd01	0.014395953
221	0x3debbc2d	0.11510501
222	0x3de5afe3	0.11215188
223	0x3c82f5d2	0.015986357
224	0x3bd06a66	0.00636034
225	0x3d0c1969	0.03420392
226	0xbd215e50	-0.039396584
227	0x3e082cd2	0.13298348
228	0xbc3e36b1	-0.011609719
229	0xbe29c5ae	-0.16579315
230	0xbe1a94e1	-0.15095855
231	0x3e099cd4	0.13438731
232	0x3dd9fc06	0.10643773
233	0x3dd57522	0.10422732
234	0x3df84c56	0.12123935
235	0x3e01407f	0.1262226
236	0x3e29e305	0.16590507
237	0x3d7e6353	0.06210644
238	0x3e1b231b	0.1515011
239	0x3dcf9343	0.1013551
240	0x3d693105	0.056931514
241	0x3e0bdf94	0.13659507
242	0xbd253172	-0.040330358
243	0xbd894259	-0.06702108
244	0xbdc98b02	-0.09840967
245	0x3e21fdfa	0.1581954
246	0xbd0f9556	-0.035054527
247	0x3c3a9bf1	0.011389718
248	0x3e2606d5	0.16213544
249	0x3d5f8353	0.0545686
250	0x3de38d2a	0.11110909
251	0x3c68abf8	0.014201157
252	0x3db015bd	0.08597896
253	0xbde394d4	-0.11112371
254	0x3d7035e4	0.058645144
255	0xbd1e75e6	-0.038686655

conv2.bias f4 [64]
0	0x3bb9ffe1	0.005676255
1	0xbd8d80c6	-0.06909327
2	0xbd1903ea	-0.03735725
3	0xbba5f1cf	-0.005064226
4	0xba39531e	-0.00070695754
5	0xbc211f20	-0.009834081
6	0xbbf267e2	-0.0073976377
7	0x3c0ad66a	0.008473972
8	0x39068ea0	0.00012832368
9	0xbda4d859	-0.080490775
10	0xbbdedcfa	-0.006801245
11	0xbd01a1f4	-0.03164859
12	0xbc2d0fc8	-0.010562845
13	0xbd4b7830	-0.049675167
14	0x3ce0a1e4	0.027420945
15	0xbab54b21	-0.0013831594
16	0x3c1d819e	0.009613423
17	0x3c65b0fa	0.014019245
18	0xbb1b8ee7	-0.00237363
19	0x3c1205c1	0.008912505
20	0xbc791843	-0.015203538
21	0xbd9e9c79	-0.077446885
22	0xbbc43eee	-0.005988947
23	0x3aba8799	0.0014231085
24	0x3d8d16dc	0.06889126
25	0x37efe2f3	2.8596702e-05
26	0x3c4f6868	0.01265917
27	0xbcfe2dc6	-0.031027686
28	0xbccfea4c	-0.025380276
29	0xbb8b3ed3	-0.0042494326
30	0x3adbc659	0.0016767486
31	0xbceed8b5	-0.029156068
32	0x3c187b9c	0.0093068145
33	0x3c05cbeb	0.008166294
34	0x3e21f24e	0.15815088
35	0xbca2bb36	-0.01986466
36	0x3c0156c6	0.007894224
37	0x3c1760ad	0.009239358
38	0x3c597a07	0.0132737225
39	0xbdccbcd0	-0.099969506
40	0x3cbaf7e8	0.022823289
41	0xbbad5eee	-0.0052908575
42	0xbb9a209a	-0.0047035934
43	0xbc8637e7	-0.016384078
44	0xbc4c417e	-0.012466786
45	0xbbb9d33a	-0.005670932
46	0x3bfb0e41	0.0076616113
47	0x3b48e16d	0.0030651942
48	0x3bb5ad36	0.00554433
49	0xbbd1bc56	-0.006400625
50	0xbb25c3a2	-0.0025293608
51	0x392524d0	0.0001574934
52	0x3d6ea992	0.058267184
53	0xbc01a188	-0.007912047
54	0x3be86583	0.0070921793
55	0x3b446de1	0.002997272
56	0x3bb202dd	0.0054324702
57	0x388cbc64	6.710811e-05
58	0x3befd89e	0.007319524
59	0x3d5dfecd	0.054198075
60	0xbc1cdd03	-0.009574178
61	0x3dcd2650	0.10017073
62	0x3b879f42	0.004138858
63	0x3bbe98a5	0.0058165365

act2.conv.weight f4 [64, 64, 3, 3]
0	0xbbd5d856	-0.0065260334
1	0xbd7830f7	-0.06059357
2	0xbed70361	-0.41994765
3	0x3db3c85f	0.08778452
4	0x3e56281c	0.20913738
5	0xbeb5ff78	-0.3554647
6	0xbdd59221	-0.104282625
7	0xbe781309	-0.24226011
8	0xbf04d895	-0.5189298
9	0x3ebbe24c	0.36696088
10	0x3eb16e06	0.34654254
11	0x3e58de4d	0.21178551
12	0xbde39169	-0.11111719
13	0x3d5449c7	0.051828172
14	0xbd6054b5	-0.054768283
15	0xbe0b3189	-0.13593115
16	0xbd0e56e2	-0.034750827
17	0x3dda8707	0.10670286
18	0x3da6b271	0.08139504
19	0xbe1e7ebd	-0.15478034
20	0x3c1a58d5	0.009420593
21	0xbe24b09d	-0.16082998
22	0x3e7bffaa	0.24609247
23	0x3e6cf7a7	0.23141347
24	0x3e07b4cf	0.13252567
25	0x3d43fe26	0.047849797
26	0x3d8268c4	0.06367639
27	0xbe038af6	-0.12845978
28	0xbd940cc7	-0.072289996
29	0xbe64b00e	-0.22332785
30	0x3c6fe731	0.014642523
31	0xbd5eaaf6	-0.05436226
32	0x3e8ea366	0.27859038
33	0xbdd870b9	-0.10568375
34	0x3e8af180	0.27137375
35	0x3e2dedc2	0.16985229
36	0xbe53369b	-0.20626299
37	0x3e379a17	0.17929874
38	0x3e0f9868	0.14022982
39	0x3d823e90	0.06359589
40	0xbe19500c	-0.14971942
41	0xbf1648b6	-0.587047
42	0x3e2168aa	0.15762582
43	0xbe471773	-0.19442539
44	0xbe91a09b	-0.28442845
45	0xbd0c3497	-0.03422984
46	0x3e0256ff	0.12728499
47	0xbe100425	-0.14064081
48	0x3b4094fe	0.0029385681
49	0xbea44e0f	-0.32090804
50	0x3d2dd4ec	0.042439386
51	0x3d9cefae	0.07662903
52	0xbe96198c	-0.29316366
53	0xbd647d23	-0.055783402
54	0xbda92290	-0.082585454
55	0xbe74225c	-0.23841232
56	0xbdae85b1	-0.08521593
57	0xbe45ee95	-0.19329293
58	0xbde6035d	-0.1123111
59	0xbcf6c8bf	-0.03012502
60	0xbe93eed8	-0.2889316
61	0xbde46113	-0.11151328
62	0xbe7ace56	-0.24492773
63	0x3e6a5dc5	0.22887333
64	0x3ea00624	0.31254685
65	0xbe37cce7	-0.17949258
66	0x3e10d431	0.14143445
67	0xbdb21a01	-0.08696366
68	0xbe6f0279	-0.23340787
69	0xbc805b9c	-0.015668683
70	0xbd299a8a	-0.041407146
71	0xbec237e2	-0.3793326
72	0x3e85362c	0.26017892
73	0x3e59ea42	0.21280769
74	0x3d7c9b42	0.061671503
75	0xbdf57520	-0.119852304
76	0xbe17f5aa	-0.14839807
77	0x3d404d81	0.046948913
78	0x3c9de93b	0.019276252
79	0x3df33409	0.11875159
80	0xbe8e803b	-0.27832207
81	0x3e4f3acc	0.20237273
82	0x3d1094c8	0.03529814
83	0x3e2be0c0	0.16784954
84	0xbe4d0006	-0.2001954
85	0x3e423faa	0.18969598
86	0x3e7a7900	0.2446022
87	0xbe14fae3	-0.1454883
88	0x3e01340c	0.1261751
89	0x3ea3cf32	0.31994015
90	0x3dae638b	0.0851508
91	0x3e38f099	0.1806053
92	0x3bced331	0.006311797
93	0x3e866d90	0.26255465
94	0x3eca8946	0.39557856
95	0xbcdd4043	-0.027008181
96	0xbe69171f	-0.22762726
97	0xbd61233d	-0.054965246
98	0xbdb1f475	-0.086892046
99	0x3c1aedba	0.0094560925
100	0x3e547634	0.20748216
101	0x3d3d4682	0.04620982
102	0x3d22761a	0.03966341
103	0xbd3a90b0	-0.04554814
104	0x3e1f347f	0.1554737
105	0x3e382149	0.17981447
106	0x3e3617d1	0.17782523
107	0x3dbcb9fe	0.09215163
108	0x3e889575	0.26676527
109	0x3e46bc31	0.19407727
110	0x3defb16d	0.11703763
111	0x3e3bc38c	0.18336314
112	0xbe591c65	-0.21202238
113	0xbe152ebf	-0.14568613
114	0x3eab1b28	0.33419156
115	0x3d04915b	0.032365184
116	0xbb8e44b8	-0.004341688
117	0x3e8270f0	0.2547679
118	0x3d24d67c	0.04024361
119	0x3e11ed63	0.14250712
120	0xbdc80f2d	-0.097685196
121	0xbe5a9ee6	-0.21349677
122	0xbe2e0edf	-0.1699786
123	0xbddc07d9	-0.10743684
124	0x3e309072	0.17242602
125	0x3daa3ea4	0.08312729
126	0x3c288bf1	0.010287271
127	0xbd429dd4	-0.047513798
128	0x3da5eb44	0.08101514
129	0x3d2bb141	0.04191709
130	0xbdfa7504	-0.1222935
131	0x3e27808a	0.16357628
132	0xbca91588	-0.02064015
133	0xbde17e09	-0.110103674
134	0x3ead8db0	0.3389716
135	0xbd3ff4cd	-0.04686432
136	0xbe87c623	-0.26518354
137	0x3dac81f8	0.08423227
138	0xbdf9c939	-0.12196583
139	0xbe47c83f	-0.19509982
140	0x3e3083b2	0.17237738
141	0x3ea53a3e	0.32270998
142	0x3ded2887	0.115799956
143	0x3e355678	0.17708766
144	0xbde6c3ef	-0.1126784
145	0xbe294aaf	-0.16532396
146	0xbc0638a2	-0.008192213
147	0xbe93e678	-0.2888677
148	0xbea50ea9	-0.32237747
149	0x3cedc462	0.029024307
150	0x3df859b8	0.121264875
151	0x3e2cf1bd	0.16889091
152	0x3e36e556	0.17860922
153	0xbe441b1e	-0.1915097
154	0xbe4812d5	-0.19538434
155	0xbe0a4d91	-0.13506152
156	0x3e3a39c8	0.18186104
157	0x3e62071d	0.22073026
158	0x3e346726	0.17617473
159	0xbbf29c14	-0.00740386
160	0x3dc188ed	0.09449945
161	0x3dda0ac2	0.10646583
162	0xbce347e9	-0.02774425
163	0x3e0139ae	0.1261966
164	0x3e1d6cf7	0.15373598
165	0x3cb0d36b	0.021585187
166	0xbe9b74db	-0.3036259
167	0xbdd856f9	-0.10563464
168	0x3f3b5931	0.7318297
169	0x3eab7e16	0.33494633
170	0x3e8c5329	0.27407196
171	0x3dcd0860	0.10011363
172	0xbbe01350	-0.0068382397
173	0xbdef6591	-0.11689294
174	0xbda72ded	-0.081630565
175	0xbd8acc08	-0.06777197
176	0xbe1c15ed	-0.15242739
177	0xbda5a811	-0.08088697
178	0xbd3c1d29	-0.045926247
179	0xbe851527	-0.259927
180	0x3e7c7d12	0.24657086
181	0x3e2d79c6	0.16940984
182	0x3e2af9c4	0.1669684
183	0x3e9bd535	0.30436102
184	0x3e13304e	0.14373896
185	0x3e169a38	0.14707267
186	0x3e06b2ce	0.13154146
187	0x3e10b9f9	0.14133443
188	0x3da459cd	0.08024941
189	0x3e3c8628	0.18410552
190	0x3c871977	0.016491635
191	0xbd2d4c69	-0.0423092
192	0x3e083704	0.13302237
193	0xbda60ef8	-0.08108324
194	0xbdbcef13	-0.09225287
195	0x3e04f95f	0.12985753
196	0x3d951e0b	0.07281121
197	0xbe2fff9f	-0.17187355
198	0xbef0ec5f	-0.47055337
199	0xbe982b06	-0.29720324
200	0xbdd33c1a	-0.10314198
201	0xbedfe229	-0.43727234
202	0xbd7b7f6c	-0.061400816
203	0x3e4078c0	0.18796062
204	0x3dbc1fc6	0.09185748
205	0x3ee3c259	0.44484213
206	0x3dd29678	0.10282606
207	0xbcc792ba	-0.024361957
208	0xbd710826	-0.05884566
209	0x3b936107	0.0044976505
210	0x3cd45499	0.025919246
211	0xbd830942	-0.0639825
212	0xbe59a288	-0.21253407
213	0x3d5670df	0.052353736
214	0xbdb48591	-0.08814538
215	0x3d627403	0.05528642
216	0xbe6532b2	-0.2238262
217	0xbe23073c	-0.15920728
218	0xbcdb979b	-0.02680569
219	0xbdf0a2c8	-0.11749798
220	0xbdf41861	-0.119187124
221	0x3c1c6a0e	0.00954677
222	0x3d1a1eb4	0.037626937
223	0x3d413ced	0.047177244
224	0x3c2a1d2e	0.010382934
225	0x3e3ab051	0.18231322
226	0x3c8b1e38	0.016982183
227	0x3c1aed32	0.009455966
228	0x3c48aeb1	0.012248681
229	0xbe1b4b0c	-0.15165347
230	0xbe72498f	-0.23660873
231	0xbda26a13	-0.07930388
232	0xbe44666b	-0.19179694
233	0xbe6bee41	-0.23040105
234	0x3e95e14d	0.29273453
235	0x3dfffac1	0.124989994
236	0x3dc11bdf	0.09429144
237	0x3e643bfd	0.22288509
238	0xbd851a5c	-0.06499168
239	0x3e8dc23c	0.27687252
240	0x3ddc308c	0.10751447
241	0xbe24fbad	-0.16111632
242	0x3ea1663b	0.31523308
243	0x3e90dc69	0.2829316
244	0xbd34f714	-0.044180945
245	0x3e688196	0.22705683
246	0x3d3348a1	0.043770436
247	0xbd26d7ac	-0.040733024
248	0x3d04fb9f	0.032466527
249	0xbdb43522	-0.08799197
250	0xbd07acd3	-0.033123802
251	0x3e7ad802	0.24496463
252	0x3cfdc241	0.030976417
253	0x3d38dca6	0.0451323
254	0x3e0d3aa3	0.137919
255	0x3e183b5e	0.14866397

conv3.weight f4 [64, 64, 3, 3]
0	0x3e8a051d	0.26957026
1	0x3e4d4a98	0.20047987
2	0xbe484327	-0.19556867
3	0x3e8c437e	0.27395242
4	0xbc5d50a5	-0.013507997
5	0xbf0b1468	-0.5432801
6	0x3d0d24da	0.034458973
7	0x3d9c3494	0.07627216
8	0xbec994f2	-0.3937145
9	0x3cd0ceee	0.025489297
10	0xbdb995aa	-0.09061749
11	0xbd5e157a	-0.0542197
12	0x3e476fb7	0.1947621
13	0xbd9fe46d	-0.07807241
14	0x3e5d2023	0.2159429
15	0x3e532bb5	0.20622142
16	0x3ae659c8	0.0017574364
17	0x3ca0354b	0.019556662
18	0x3ea0db63	0.3141738
19	0xbdbcbdcb	-0.09215888
20	0xbe7c2014	-0.24621612
21	0x3ec23924	0.3793422
22	0xbd1bfd30	-0.038083255
23	0xbe460dda	-0.19341221
24	0x3e14810c	0.14502352
25	0xbde8ea2a	-0.11372788
26	0x3d874c72	0.06606378
27	0x3dd49740	0.10380411
28	0x3dd2a763	0.10285833
29	0x3d00e418	0.031467527
30	0xbd93e9e2	-0.07222344
31	0xbe4a7e7f	-0.19774817
32	0xbd0445e4	-0.032293215
33	0xbde2b632	-0.11069907
34	0xbdb0a6e8	-0.08625585
35	0x3e1661aa	0.14685693
36	0xbd251c4f	-0.0403102
37	0xbdd15440	-0.102211475
38	0x3d4a8e8c	0.04945235
39	0x3d684b89	0.05671266
40	0xbd280f81	-0.04103041
41	0x3e1c4e59	0.15264262
42	0x3dc7233f	0.097235195
43	0xbe30d38a	-0.17268196
44	0x3da6b764	0.08140448
45	0xbe2a3c58	-0.16624582
46	0x3e1891ac	0.1489932
47	0x3d9ef8bf	0.07762288
48	0x3cbb346c	0.022852145
49	0x3dd301a7	0.103030495
50	0x3dc4b08c	0.09603986
51	0xbda0984a	-0.07841547
52	0x3d6118ed	0.05495541
53	0x3e5e38ff	0.2170143
54	0x3dadacc4	0.08480218
55	0x3c960e84	0.018317468
56	0x3da643f5	0.081184305
57	0x3da0f2e9	0.078588314
58	0xbd88157e	-0.06644724
59	0x3cb4a0a1	0.02204925
60	0x3e2d9bc6	0.16953954
61	0xbbad6f9e	-0.005292847
62	0xbd8e5793	-0.06950297
63	0x39e3435e	0.00043347006
64	0x3df0d60d	0.11759577
65	0x3dba4717	0.090955906
66	0x3e4ff16b	0.20306937
67	0xbe22d9e6	-0.15903434
68	0xbd3de932	-0.04636497
69	0x3e926389	0.28591564
70	0xbdfefe81	-0.124508865
71	0xbe1401c1	-0.14453794
72	0xbbb6d711	-0.005579837
73	0xbda8e7be	-0.08247326
74	0xbafd8ea8	-0.0019344883
75	0x3dbf0244	0.09326604
76	0xbc12064a	-0.008912632
77	0xbe9b29da	-0.30305368
78	0xbcf953f8	-0.030435547
79	0xbe4981cb	-0.19678418
80	0xbe4c04eb	-0.19923751
81	0xbb034647	-0.0020030902
82	0xbd07ca44	-0.03315188
83	0x3d99eaba	0.07515474
84	0x3dd512b0	0.10403955
85	0x3e14af7e	0.1452007
86	0x3d54f7a1	0.05199397
87	0xbe683d50	-0.22679639
88	0x3dc0afce	0.09408532
89	0x3e0caa72	0.13736895
90	0xbd5ed097	-0.054398146
91	0x3e85c98d	0.26130334
92	0x3d80c29f	0.06287121
93	0x3dacce5f	0.084378
94	0xbe218711	-0.1577418
95	0xbe13fd8c	-0.14452189
96	0xbdcd339b	-0.100196086
97	0x3e2f16f5	0.17098601
98	0xbcaf3be1	-0.021390857
99	0xbc0f5050	-0.008747175
100	0x3be93dbe	0.007117956
101	0x3c2d6bcc	0.010584783
102	0x3d54e338	0.051974505
103	0x3e633fad	0.22192259
104	0x3d5dc3dd	0.054141868
105	0xbcb8be8b	-0.022551795
106	0x3c632454	0.013863642
107	0xbc899254	-0.016793407
108	0xbccd73b7	-0.025079591
109	0x3dffa345	0.12482313
110	0x3d86af6d	0.065764286
111	0xbd60f7e0	-0.054923892
112	0xbdffb39c	-0.1248543
113	0x3d26d0e1	0.040726546
114	0xbd3d03ba	-0.046146132
115	0x3dba0075	0.090821184
116	0x3d94c23e	0.07263611
117	0xbe3b199c	-0.18271488
118	0xbd7c53ed	-0.061603475
119	0xbe35ee0b	-0.17766587
120	0xbdc9fd9a	-0.09862824
121	0x3d81631a	0.0631773
122	0x3ba607df	0.0050668563
123	0x3dd314c3	0.10306694
124	0x3e1fb93d	0.15598007
125	0x3b0ec88b	0.0021787013
126	0x3d4cd132	0.05000419
127	0xbdad066d	-0.08448491
128	0xbd4863a3	-0.048923146
129	0xbe2b6681	-0.16738321
130	0x3c2f49ef	0.0106987795
131	0x3cd8f764	0.026485153
132	0xbe8633a4	-0.26211274
133	0x3d897792	0.06712259
134	0xbe02a318	-0.12757528
135	0xbe6326e3	-0.22182803
136	0xbda278da	-0.07933207
137	0xbd1d35a8	-0.03838125
138	0xbe60cd87	-0.21953402
139	0xbc41e3b0	-0.01183407
140	0x3d348fc6	0.044082426
141	0xbe839bb9	-0.25704744
142	0x3d096174	0.033540204
143	0x3e1f7946	0.15573606
144	0x3d622864	0.0552143
145	0x3de55865	0.111985005
146	0xbceec44f	-0.029146342
147	0x3e087a6b	0.13327949
148	0x3dfcbf01	0.123411186
149	0xbc0542e9	-0.008133628
150	0xbc3b63fd	-0.011437413
151	0xbd50cad3	-0.05097468
152	0x3e2b889d	0.16751333
153	0xbe1ce42d	-0.15321417
154	0x3decff00	0.11572075
155	0xbca53e23	-0.02017123
156	0x39927f2c	0.0002794204
157	0xbdb7178a	-0.089400366
158	0xbe209f8f	-0.15685867
159	0x3d4b3f7a	0.049621083
160	0x3d4891fa	0.04896734
161	0xbdd6d7c5	-0.104903735
162	0xbdf469a9	-0.119342156
163	0x3dbf9af5	0.093557276
164	0xbd3bed96	-0.045880876
165	0xbd914154	-0.070925385
166	0x3ce738c7	0.028225316
167	0xbd16fda5	-0.036862988
168	0x3d135d47	0.035977628
169	0x3dddfb09	0.10838897
170	0x3dd1d635	0.10245935
171	0xbe6b2926	-0.22964916
172	0x3da1a027	0.07891875
173	0x3e81d3e1	0.25356963
174	0xbe015ccb	-0.12633054
175	0x3db0a89c	0.0862591
176	0x3e7ffedd	0.24999566
177	0xbd15f702	-0.036612518
178	0x3cd5e9de	0.026112493
179	0xbcdae118	-0.026718661
180	0xbd81bb6d	-0.06334577
181	0x3e00240e	0.12513754
182	0x3d9b1591	0.07572473
183	0x3e010b1b	0.12601893
184	0x3e40483d	0.18777557
185	0xbda5ba4d	-0.08092175
186	0xbca406f8	-0.020022854
187	0x3cbc3751	0.022975596
188	0xbe82f83c	-0.25580013
189	0xbe1f9e1e	-0.1558766
190	0x3e245298	0.16047132
191	0xbdf497de	-0.11943029
192	0xbe487757	-0.19576775
193	0x3d121bed	0.035671163
194	0x3da80a57	0.08205097
195	0x3d73eb0c	0.05955033
196	0xbdf86619	-0.121288486
197	0xbd51d5ea	-0.051229395
198	0x3caada5a	0.020856071
199	0x3d96b85c	0.073593825
200	0xbe32215f	-0.17395543
201	0x3e112585	0.14174469
202	0x3e333e88	0.17504323
203	0xbe2f72f8	-0.17133701
204	0x3d892395	0.0669624
205	0xbd7015e2	-0.05861462
206	0xbea08b0e	-0.3135609
207	0x3d7602bd	0.060061205
208	0xbc8fa636	-0.01753531
209	0x3e7f2ddd	0.24919839
210	0x3e3202c4	0.17383868
211	0xbe25107a	-0.16119567
212	0x3d005d9a	0.031339265
213	0xbdb4eedc	-0.08834621
214	0xbc21009c	-0.009826805
215	0x3dcaae28	0.09896499
216	0x3c813f7c	0.015777342
217	0x3dbb724a	0.09152658
218	0x3d105657	0.03523859
219	0xbd6aaa70	-0.057291448
220	0x3d7bd667	0.061483767
221	0xbe1ff4f4	-0.15620786
222	0xbcab0131	-0.020874592
223	0x3e8c0840	0.27350044
224	0x3dc8ee30	0.09811056
225	0xbbc26ba1	-0.0059332405
226	0xbc305de0	-0.010764569
227	0xbcc0f1d0	-0.023552805
228	0x3dcede07	0.10100942
229	0x3cc4f563	0.02404279
230	0x3ce5bc60	0.028043926
231	0xbd47ee4d	-0.048811246
232	0xb9a52c9e	-0.00031504495
233	0x3d6a3e40	0.057188272
234	0xbdc0b475	-0.094094194
235	0x3e1830e5	0.14862402
236	0xbd0ac8df	-0.03388297
237	0x3e42189b	0.18954699
238	0x3ead4826	0.33844107
239	0x3df333cb	0.11875113
240	0x3e4653ca	0.193679
241	0x3df81660	0.12113643
242	0x3cfe1863	0.031017488
243	0x3e109129	0.14117874
244	0xbd3988cf	-0.045296486
245	0xbcc91251	-0.024544867
246	0xbbc0b23d	-0.0058806227
247	0xbe352680	-0.17690468
248	0x3e853dd1	0.26023725
249	0x3e628e2f	0.22124551
250	0xbda1ba75	-0.07896892
251	0x3d4f7b3f	0.050654646
252	0xbe59c912	-0.21268108
253	0xbd423eaf	-0.04742306
254	0x3e694e91	0.22783877
255	0xbe5a13db	-0.21296637

conv3.bias f4 [64]
0	0x3ab806d2	0.0014040119
1	0xbbc996a4	-0.006151991
2	0xbc8f49e0	-0.017491281
3	0xbd34f02d	-0.044174362
4	0xbc9f49e3	-0.019444412
5	0xbd95d44a	-0.073158816
6	0xbbfe7bb1	-0.00776621
7	0x3d3f6ca0	0.046734452
8	0x3c55b758	0.013044201
9	0xbd235cf8	-0.039883584
10	0xbc8f3d94	-0.017485417
11	0x3c07ed80	0.0082963705
12	0xbca61e8b	-0.020278236
13	0xbd4146b3	-0.047186565
14	0x3bc5557a	0.0060221525
15	0xbc284039	-0.010269218
16	0xbc8ae3ce	-0.016954329
17	0xbc1f6a60	-0.009729952
18	0xbbc0ff1a	-0.0058897855
19	0xbd096a6c	-0.033548757
20	0x3c48762d	0.012235207
21	0x3a4e66e2	0.0007873607
22	0xbc1e3243	-0.009655538
23	0x3be17e61	0.0068815206
24	0xbd23dac5	-0.040003557
25	0xb96b15fb	-0.00022419535
26	0x3d8a9254	0.06766191
27	0xbe1bb57f	-0.15205954
28	0xbc52dc03	-0.012869838
29	0x3c8f80de	0.017517503
30	0x3c107f6b	0.008819441
31	0x3e05804b	0.13037221
32	0x3c1a1381	0.009404064
33	0x3c2efaeb	0.010679941
34	0x3cd01824	0.025402136
35	0xbcbdf931	-0.023190113
36	0xbc704313	-0.014664429
37	0x3e043ee0	0.1291461
38	0xbcaf2d90	-0.02138403
39	0x3d3cdd7a	0.046109654
40	0x3c1339c3	0.008985939
41	0x3c9d260b	0.01918318
42	0x3bd1fe54	0.006408492
43	0x3cd53016	0.026023906
44	0x3d20596a	0.039147772
45	0x3b905c30	0.004405521
46	0x3d099395	0.03358801
47	0x3baccaff	0.0052732225
48	0xbb90fe7d	-0.0044248686
49	0xbd6ffa6b	-0.058588427
50	0xbd3bf948	-0.04589203
51	0xbe3c819f	-0.18408822
52	0xbb30ff51	-0.002700765
53	0xbcd2f86e	-0.025753226
54	0xbd035026	-0.032058857
55	0x3bb2c55d	0.0054556564
56	0x3bbd2aaf	0.0057729105
57	0xbcee7d57	-0.029112501
58	0xbcd7ca3d	-0.026341552
59	0xbda91039	-0.08255047
60	0xbc4eae3f	-0.012614786
61	0xbbc2ae34	-0.005941177
62	0xbd3644e4	-0.044499293
63	0x3e22e362	0.15907052

act3.conv.weight f4 [64, 64, 3, 3]
0	0x3ddbb5e2	0.10728051
1	0xbed0c3d3	-0.40774402
2	0xbe7501ea	-0.23926511
3	0xbdac3bbf	-0.08409833
4	0xbefb2442	-0.490511
5	0xbd88b019	-0.06674213
6	0xbe5768ba	-0.21036044
7	0xbdc8f32b	-0.098120056
8	0xbea9f9a8	-0.33198285
9	0x3da8f2d9	0.082494445
10	0xbeb4a7cd	-0.35284272
11	0xbedfcf1c	-0.437127
12	0xbe26ca2e	-0.16288063
13	0xbec30ffc	-0.38098133
14	0xbf1bacde	-0.6081065
15	0xbe722a29	-0.23648895
16	0xbeb2a23f	-0.3488941
17	0xbebb3771	-0.36565736
18	0xbeb50c92	-0.35361153
19	0xbcf7a5b5	-0.030230382
20	0xbe57a6db	-0.21059744
21	0xbe2e69de	-0.17032573
22	0x3e1a2787	0.15054141
23	0xbe907ec1	-0.28221706
24	0x3deb89bd	0.11500881
25	0xbe5f297c	-0.21793169
26	0xbe27c191	-0.16382433
27	0xbcb69582	-0.022288088
28	0xbc5f5190	-0.013630286
29	0x3af2ede9	0.0018534038
30	0xbe07b0f2	-0.13251093
31	0xbdbaf680	-0.091290474
32	0xbcd2c1c0	-0.025727153
33	0x3d4d89f2	0.050180383
34	0xbd5db7ac	-0.05413024
35	0x3dfcd031	0.12344397
36	0x3d84de11	0.06487668
37	0x3dbc299e	0.09187625
38	0xbc41a52d	-0.011819166
39	0x3da86f98	0.0822441
40	0xbe83404d	-0.25634995
41	0xbea2d724	-0.31804764
42	0xbcf7cfea	-0.030250508
43	0xbb862a1e	-0.004094376
44	0xbeb3a4e6	-0.35086745
45	0xbd121b4d	-0.035670567
46	0xbdbadf20	-0.09124589
47	0xbdca15f1	-0.09867466
48	0x3de7f559	0.11326093
49	0x3e67c245	0.22632702
50	0xbe915baa	-0.28390247
51	0xbdb2b6fa	-0.08726306
52	0x3b39107c	0.0028238585
53	0xbee39922	-0.4445277
54	0x3c4a8604	0.012361053
55	0x3c075f98	0.008262537
56	0xbe1d177d	-0.15340991
57	0x3d1c28a9	0.038124714
58	0xbe240193	-0.16016226
59	0x3e2d0de2	0.16899827
60	0x3b879340	0.0041374266
61	0x3dfcebb6	0.12349646
62	0x3b96c6bf	0.004601329
63	0xbecc549c	-0.39908302
64	0xbe8b9aa3	-0.27266416
65	0xbe91d5f5	-0.2848355
66	0xbe915cc0	-0.28391075
67	0xbe05cbf0	-0.13066077
68	0xbe56a7f1	-0.20962502
69	0xbe869e54	-0.2629267
70	0xbda8808d	-0.08227644
71	0xbe4f4019	-0.20239295
72	0x3e8d172c	0.2755674
73	0xbd4268cc	-0.047463223
74	0xbe33f312	-0.17573193
75	0x3e4cfabb	0.20017521
76	0x3e72f8a5	0.23727663
77	0xbeb6064f	-0.35551688
78	0x3db590e9	0.0886553
79	0xbd988f1d	-0.07449172
80	0xbe5c9750	-0.21542096
81	0xbd014404	-0.031559005
82	0xbe3034d7	-0.17207657
83	0xbe22b5e7	-0.15889703
84	0xbdc551b5	-0.09634725
85	0xbed104f0	-0.4082408
86	0xbeff2894	-0.49835646
87	0xbe2dc7d5	-0.16970761
88	0xbdc00044	-0.09375051
89	0xbf04d9d6	-0.5189489
90	0xbcb391e6	-0.021920156
91	0xbcdc2eac	-0.026877724
92	0xbe5fed80	-0.21867943
93	0x3d0165c8	0.031591207
94	0x3d11f41d	0.035633195
95	0xbe8c8a35	-0.27449194
96	0xbe060962	-0.13089517
97	0xbbff0f6f	-0.0077838222
98	0xbe352304	-0.17689139
99	0xbdaabfc6	-0.08337359
100	0x3e6c0be0	0.23051405
101	0x3e1d0c88	0.15336812
102	0x3df7147a	0.120644525
103	0x3e141c0f	0.14463829
104	0x3e1facc3	0.15593247
105	0xbd3fe4f7	-0.046849217
106	0xbe02a261	-0.12757255
107	0xbd1731d0	-0.03691274
108	0xbe67fc8a	-0.2265493
109	0x3d997e67	0.074948125
110	0x3d2a7aa7	0.041620877
111	0xbeaefe28	-0.3417828
112	0xbe5c5415	-0.2151645
113	0xbea1a903	-0.31574258
114	0xbe3262c4	-0.17420489
115	0x3ec53caa	0.38522846
116	0xbe683440	-0.22676182
117	0x3e408542	0.18800834
118	0x3ec8cc29	0.39218262
119	0x3e74a84d	0.23892327
120	0x3dab1704	0.08353999
121	0x3ecc7141	0.39930156
122	0x3e6d2b3e	0.23161027
123	0x3e41ec69	0.1893784
124	0x3e47aa95	0.19498666
125	0x3df27706	0.11839108
126	0xbdb4dbe5	-0.08831004
127	0xbed98645	-0.42485252
128	0xbeab569b	-0.33464512
129	0x3d845285	0.06461052
130	0x3c981445	0.018564353
131	0xbdc6fc26	-0.09716062
132	0x3cb3951c	0.021921687
133	0xbd233c45	-0.0398524
134	0xbe785a8f	-0.24253295
135	0xbc9d6bb9	-0.019216405
136	0x3d07fc7d	0.033199776
137	0x3e9f1b65	0.31075588
138	0xbce2beb6	-0.027678829
139	0x3d45efba	0.048324324
140	0x3e6d923f	0.2320032
141	0x3e404d30	0.18779445
142	0xbc9e1b0c	-0.019300006
143	0x3d307b5d	0.0430864
144	0x3e5a946d	0.21345682
145	0x3d326f94	0.04356344
146	0x3e1f4134	0.15552217
147	0x3e209a66	0.15683898
148	0x3dad324d	0.0845686
149	0xba6f412d	-0.00091268384
150	0x3e046b04	0.12931448
151	0x3deafad6	0.114736244
152	0xbd518230	-0.051149547
153	0x3d97a65b	0.07404777
154	0x3ddac1f3	0.10681524
155	0xbdafd2d2	-0.08585133
156	0xbdbb61a3	-0.09149482
157	0x3c86b453	0.016443407
158	0xbe8fba08	-0.28071618
159	0x3c032b60	0.008005947
160	0xbd4f0f66	-0.050551794
161	0xbe573c38	-0.21019065
162	0xbe4ed99a	-0.20200196
163	0xbe870b57	-0.2637584
164	0x3d97cebb	0.074124776
165	0xbeb5d469	-0.3551362
166	0xbd0de804	-0.034645095
167	0xbe285c3a	-0.16441432
168	0xbe5c9a72	-0.21543291
169	0xbe8c354c	-0.27384412
170	0xbe68dab3	-0.22739677
171	0x3b352192	0.0027638418
172	0xbe1839d3	-0.14865808
173	0xbdb1f25c	-0.086888045
174	0xbdcc3f2c	-0.099729866
175	0xbea2e1db	-0.3181294
176	0xbd4092f4	-0.047015145
177	0xbe009366	-0.12556228
178	0xbdbcf7bd	-0.0922694
179	0xbd632779	-0.055457566
180	0x3c99306e	0.01869985
181	0x3ea315a4	0.31852448
182	0x3ea701e3	0.32618627
183	0xbdd74cd9	-0.105127044
184	0x3e2a7787	0.16647159
185	0x3eca3ae0	0.39498043
186	0xbd7e3902	-0.062066086
187	0x3e828a32	0.2549606
188	0x3eed6560	0.46366405
189	0x3e31d82b	0.17367618
190	0xbe14879f	-0.1450486
191	0xbd3c5837	-0.045982566
192	0xbce11698	-0.027476594
193	0x3e4da626	0.20082912
194	0x3e5af394	0.2138198
195	0x3ec10d58	0.37705493
196	0xbe5f9f61	-0.21838142
197	0xbe030317	-0.12794147
198	0xbdccb5ca	-0.09995611
199	0xbe21b86c	-0.15793008
200	0xbe528efc	-0.20562357
201	0xbd6c5c66	-0.057705306
202	0xbd817b07	-0.06322294
203	0xbf421b6b	-0.75823087
204	0xbd8ba144	-0.06817868
205	0xbe432547	-0.19057189
206	0xbea134ab	-0.31485495
207	0xbd9fbd03	-0.07799723
208	0xbe99c5f7	-0.30033848
209	0xbe3029b9	-0.17203416
210	0x3d16886a	0.03675119
211	0xbd962645	-0.07331518
212	0xbdef009c	-0.11670038
213	0xbda13e5c	-0.07873222
214	0xbe14d138	-0.14532936
215	0xbe55d063	-0.20880274
216	0xbcc24f82	-0.023719553
217	0x3e39ad00	0.181324
218	0x3e48d6b5	0.19613154
219	0xbd7ceea8	-0.061751038
220	0x3d27d71a	0.04097662
221	0x3ddab0e7	0.10678273
222	0x3d8eb3a6	0.06967859
223	0x3e2f1f35	0.17101748
224	0x3db0e3d2	0.08637203
225	0x3e4dc955	0.20096333
226	0xbe43d2d1	-0.19123389
227	0xbe4fac88	-0.20280659
228	0x3e295362	0.16535714
229	0xbe6a9148	-0.22906983
230	0xbd30597e	-0.043054096
231	0xbdd175c8	-0.10227543
232	0xbc42ae2b	-0.011882345
233	0xbe591f0e	-0.21203253
234	0x3e1bc757	0.15212761
235	0xbe9f1e64	-0.31077874
236	0xbe6c460f	-0.230736
237	0xbce109f4	-0.027470566
238	0xbf006cf4	-0.5016625
239	0xbe21ea13	-0.15811948
240	0xbd211f6c	-0.039336607
241	0xbdbd41fe	-0.09241103
242	0xbe064c79	-0.1311511
243	0x3ec36c25	0.38168445
244	0x3c58ba7d	0.013228056
245	0x3dfde228	0.123966515
246	0x3eb1c04d	0.34717026
247	0x3e35c6a4	0.17751557
248	0x3dfa1910	0.122118115
249	0x3eb0c1b5	0.34522787
250	0x3e6abfda	0.22924748
251	0x3e2eedff	0.17082976
252	0x3ea42077	0.3205602
253	0x3e0cafaf	0.13738893
254	0x3db00d6a	0.085963085
255	0x3e618c26	0.22026119
